assets/output/dqn_humanoid_model.pth (torch, 401817 bytes, 6 tensors)

network.0.weight f4 [256, 71]
000000 18 21 f8 bc 82 b7 bc 3d a3 39 1e be 8d 12 a5 bd
       -0.030289218 0.09214689 -0.15451674 -0.08060179
000010 26 38 ad bd ef ef 92 3d ee 02 89 3c 69 03 a6 3d
       -0.08457975 0.0717467 0.01672503 0.08106119
000020 e1 14 c1 bc c7 74 96 3c 3b 4f 48 bd ea e1 c1 bc
       -0.023569526 0.01836623 -0.048903685 -0.023667295
000030 33 e5 e8 bd 28 aa a1 bd 16 c6 49 bd e7 ab 8c 3c
       -0.11371841 -0.07893783 -0.049261175 0.017171813
000040 e0 80 74 3d 70 00 ac 3d 72 9c 8a bd c1 eb 2b be
       0.059693217 0.08398521 -0.06768121 -0.16789152
000050 7b c1 7e 3d de ec f0 3d cf c6 ae bb f6 f9 dc 3d
       0.062196236 0.11763929 -0.0053337584 0.10789864
000060 61 68 7f bd ef fd 4f bc 86 5c a8 3d 50 98 0a be
       -0.062355403 -0.01269482 0.082207724 -0.13534665
000070 6c ba cc bd de 14 48 3d 56 67 dc bd 1f ac 28 3d
       -0.09996495 0.048848026 -0.10761897 0.041179772
000080 19 9a 0d be 02 8c ed bd ec 71 d3 bd d4 a2 06 be
       -0.13828315 -0.1159897 -0.10324463 -0.13148052
000090 ab 84 b7 bd 14 4a a7 3d 07 41 80 3d 1f e7 11 3d
       -0.08960851 0.08168426 0.06262403 0.035620805
0000a0 cf 44 80 bc 7b 75 a9 bd ba a5 ee ba dd b8 ee bd
       -0.01565781 -0.08274361 -0.0018207349 -0.116563536
0000b0 28 68 bb bd f7 15 89 bd ce 78 97 3d af a0 8c 3d
       -0.091507256 -0.066936426 0.073960885 0.068665855
0000c0 4c 58 5b bd db 16 4b 3b 47 90 aa 3d 27 5f 00 3e
       -0.053551003 0.0030988965 0.083283 0.12536298
0000d0 87 cd 79 3c eb e9 a1 3c 74 9b aa 3d 6a 77 87 bd
       0.015246755 0.019764861 0.083304316 -0.06614573
0000e0 3e c2 97 bc 3f fa cc bd 6d fe b8 bd 31 18 8e bd
       -0.01852524 -0.10008668 -0.09032903 -0.06938208
0000f0 bc ed 74 3c 77 7e 82 3d 3c 73 5e bd f6 59 54 3d
       0.014949258 0.063717775 -0.054309115 0.051843606
000100 a0 15 4c 3d fd 41 f8 bc de da 30 bc db e4 c9 3c
       0.04982531 -0.030304903 -0.0107943695 0.02464526
000110 a6 bb e4 3d c9 a9 1b 3e f3 b4 5a bd ec 50 20 bc
       0.111686036 0.15201487 -0.053395223 -0.009784918
000120 4f 45 f9 3c 39 23 3a 3e e0 fb da 3d 08 5e 19 3e
       0.030428557 0.18177499 0.106925726 0.14977276
000130 12 7b e4 3b fd 0b cb bd 57 53 4f 3c c9 7f 94 bd
       0.006972679 -0.09914396 0.012654147 -0.072509356
000140 48 f5 de bd b5 81 db 3d a3 3a b8 3d d9 07 f3 bd
       -0.108866274 0.10718099 0.08995559 -0.11866731
000150 f1 a7 b3 3c f3 17 a6 bc 1d 5f a1 bc c2 35 5f bd
       0.021930667 -0.020275092 -0.019698674 -0.054494627
000160 46 3e 3a 3d 96 4e 90 bd 1f 7f 5b 3d 4e 07 65 3d
       0.045469545 -0.07046239 0.05358803 0.05591517
000170 5b 98 a5 3d 12 f6 24 3d 31 f5 f8 bd 73 58 6d bd
       0.080857 0.040273733 -0.121561415 -0.05794568
000180 aa 86 8c 3d 35 13 0c 3d 86 6f aa bd bd 93 71 bd
       0.06861623 0.034198005 -0.08322053 -0.058978785
000190 c0 ad b7 3d 1c a0 ec 3d 1a 80 84 bc f6 dd ba 3b
       0.08968687 0.11553976 -0.016174365 0.0057027293
0001a0 fe ad 9e bd 2c cd a4 3a e9 16 b0 bd 6d 89 b4 bd
       -0.0774803 0.0012573353 -0.0859812 -0.088152744
0001b0 98 59 4e bb 44 73 40 3b da 6f bb bd 8f 4a e1 3c
       -0.0031486508 0.0029365579 -0.09152193 0.027501373
0001c0 72 ce eb bd c2 a3 84 3d 40 32 c2 3d 88 54 b1 bd
       -0.11513986 0.06476547 0.09482241 -0.08658701
0001d0 ca 70 83 bc 75 53 57 ba 8b 7f 36 3c 7d fc b3 3c
       -0.016044993 -0.0008214035 0.011138807 0.021970982
0001e0 2b df cf 3c f9 d4 66 bc 5f 01 a2 bd 29 26 6c 3d
       0.02537497 -0.014088863 -0.07910418 0.05765358
0001f0 1e 25 0c be 76 33 bf bd 3c f8 57 bd 32 bd 05 bd
       -0.13686034 -0.09335987 -0.05272697 -0.032651134
000200 71 05 a2 bc 4d b0 9a bd 1b b5 65 bb 91 3d f6 bd
       -0.019777985 -0.07553158 -0.0035050574 -0.120234616
000210 1d 2a d5 bd 47 98 06 bd cf 54 6e 3d 76 ad 19 3c
       -0.10408423 -0.032860067 0.05818635 0.009379735
000220 6b cd cb 3c 43 d2 39 3c bf 73 80 bb 7a 9b d0 3d
       0.024878224 0.011341634 -0.003920048 0.10185905
000230 cc 25 0e 3e ba 6a d0 3d 70 1f b8 3d 9e 72 eb bc
       0.13881606 0.101766065 0.08990371 -0.028741177
000240 bc 6a 02 be 88 d3 0f bd e5 f1 71 3d e7 32 93 bc
       -0.12736028 -0.03511384 0.05906858 -0.017968608
000250 91 50 9b bd 7b ef b9 bd 8a 24 e3 bd df d1 cc bd
       -0.07583726 -0.090788804 -0.11090954 -0.10000967
000260 ba ec c3 bc c0 6f 85 3d 9a 8c 83 3d 5a 43 ea bd
       -0.023916591 0.06515455 0.06423302 -0.114386275
000270 c4 c1 97 3d 46 46 bf bd 6d de d1 bc ea 44 47 bd
       0.07410005 -0.093395755 -0.025618756 -0.048649706
000280 9d 98 bf bc 43 a0 27 bd c6 8c da bd b6 4e d2 bd
       -0.023388201 -0.04092432 -0.10671382 -0.10268919
000290 ab ea 99 bc ac 98 ac 3a 54 3d 05 bd 7c 78 39 3d
       -0.018788656 0.0013168058 -0.03252919 0.04528092
0002a0 95 95 d9 bd 64 9b f3 bb 44 ec d6 3d fd da eb bc
       -0.10624234 -0.0074342955 0.10494283 -0.028790945
0002b0 00 e5 da 3d 05 e1 2e 3d c0 ed db bd 2a 32 99 3d
       0.106882095 0.042695064 -0.107387066 0.07480271
0002c0 71 5e 58 bc cb ff 56 bd de 5b c3 3d b8 68 c3 bd
       -0.01320611 -0.052490037 0.09539007 -0.09541458
0002d0 f8 25 05 bc 2c 53 c8 bc a1 5f ae 3d 7c 4e 09 3d
       -0.008126728 -0.024453722 0.085143335 0.033522114
0002e0 70 30 6b 3d fe 72 2e 3d 33 3d e4 bc 7b e8 c6 bc
       0.05741924 0.042590134 -0.027861213 -0.024280777
0002f0 b8 02 c7 bd 45 fb 84 3d 6f 43 c2 3d 69 d5 a1 3d
       -0.097173154 0.06493238 0.09485518 0.07902033
000300 d6 e9 af bd 40 de 4b 3b 42 17 b1 bd 09 d3 87 bd
       -0.085895225 0.0031107813 -0.08647014 -0.06632049
000310 e5 a7 8f bd b1 11 22 3d 43 8d 74 bd 73 a6 62 39
       -0.07014445 0.039567653 -0.05970503 0.00021615047
000320 e3 85 ff 3b 40 6c a2 3d 7d 87 aa bd 6a e7 a9 bd
       0.007797943 0.07930803 -0.083266236 -0.08296092
000330 39 2d 90 bd 5f 13 a7 3d fc 2f 25 bd a2 c9 d1 3d
       -0.070398755 0.081579916 -0.040328965 0.102435365
000340 82 54 39 3d fd 44 b6 3c 88 15 90 39 29 b3 b6 bc
       0.04524661 0.022249693 0.00027481862 -0.022302227
000350 e2 77 83 3c 11 99 7a bd 88 36 0e 3c 59 bc 90 bd
       0.016048376 -0.06118113 0.008679993 -0.070671745
000360 90 fd ca bd 13 a3 cc bd 8e 06 06 3e 66 36 bc bd
       -0.099116445 -0.099920414 0.13088438 -0.09190063
000370 95 34 83 bb 81 b0 f9 3d b3 1a 42 3d 35 12 01 3c
       -0.004004071 0.121918686 0.047388744 0.007877876
000380 08 10 d2 bd b4 f1 71 3d 6e 8d ac bd 96 d9 08 bd
       -0.10256964 0.059068397 -0.08425413 -0.03341063
000390 40 e9 42 bd 0d 9a cf bc f1 fa d3 bb 91 90 b8 3d
       -0.047585726 -0.025342012 -0.0064691235 0.09011949
0003a0 4f 12 70 bc 97 fa d0 3d ea f4 8b 3d 1a 62 a2 bd
       -0.014652803 0.10204046 0.06833823 -0.07928868
0003b0 80 93 48 3d 84 17 d6 bd 6f 17 6d bd 7a d0 df 3c
       0.048968792 -0.10453704 -0.057883676 0.027321089
0003c0 cc 70 01 3d b6 cf a6 3d 1f 6a 1a bd 66 4a 08 be
       0.031601712 0.081450865 -0.03769886 -0.13309631
0003d0 58 d7 93 bd 40 03 7e be 27 7f 42 bd 41 9d c1 bd
       -0.07218808 -0.24805927 -0.047484543 -0.09453822
0003e0 c6 8a ab 3b 64 ce 87 bc 80 46 71 bd 28 fc 34 3d
       0.005235049 -0.016577907 -0.058905125 0.044185787
0003f0 68 88 7e 3e 24 08 ed 3d 2e c8 a3 3d c6 30 da 3d
       0.24856722 0.11573818 0.079971656 0.10653834

network.0.bias f4 [256]
000000 0c 77 d0 3d 90 15 8a bc 15 43 0d be fc c5 0d 3d
       0.101789564 -0.016855985 -0.13795121 0.03461264
000010 9f fb 59 3d ef 2c 83 3d 33 2b bf bd 8d e4 75 3c
       0.05321848 0.06405055 -0.093344115 0.015008104
000020 36 b3 bb 3d 92 2a 2d 3b 7d 32 a3 bd 6d bd ab bc
       0.09165041 0.002642308 -0.07968614 -0.020964349
000030 fa 54 32 3d 1c 87 37 3d fb 10 c3 bd 4f 53 e4 3d
       0.04353807 0.044806585 -0.09524723 0.11148702
000040 25 c7 8e bd f8 ef d0 3c 13 3a b4 3d bb df bf bd
       -0.069715776 0.025505051 0.08800139 -0.09368845
000050 62 61 47 3d b6 99 c4 3c 36 78 f2 bc 1a f3 b0 bd
       0.048676856 0.023999076 -0.029598337 -0.08640118
000060 3e a8 b2 3d 14 b3 74 3d 91 c7 11 bd 9d 6d f2 3c
       0.08723496 0.059741095 -0.035590712 0.029593283
000070 61 da fe 3c 6f ac dd bd b3 fc f7 3d 58 11 d1 bd
       0.03110999 -0.10823905 0.121087454 -0.10208386
000080 2a 1d ea 3c 03 77 59 3d d1 69 c8 bc 2b 46 97 bd
       0.02857836 0.053092014 -0.02446452 -0.0738643
000090 d1 96 cc bd e0 6c 90 3d 58 42 35 3a 0c 88 30 bd
       -0.099897034 0.07052016 0.0006914488 -0.043098494
0000a0 8a 2d ff bc c4 34 83 3c 61 42 c1 3d 15 6d da bd
       -0.031149644 0.016016372 0.09436489 -0.10665337
0000b0 c9 21 4d 3c fb aa fb bd f3 ab cf bd 12 07 54 bd
       0.012520262 -0.12288471 -0.101402186 -0.051764555
0000c0 c4 84 a3 3d e9 c3 d3 bc 5d 21 44 3c 94 a7 4c 3d
       0.079843074 -0.025850253 0.011970845 0.049964502
0000d0 66 bd d5 3c 7f b4 8d 3d 52 53 bb bd be 21 64 3d
       0.026091289 0.069191925 -0.091467515 0.05569624
0000e0 e3 0b 92 3d c9 85 ec bd 0c 58 25 3d c1 d5 04 bd
       0.071311735 -0.11548955 0.04036717 -0.032430414
0000f0 fe 06 61 3d c5 98 ef bc 95 12 f3 3c 18 d4 8b bd
       0.05493831 -0.02924765 0.029671947 -0.06827563
000100 fc 80 2a bd 87 cc 95 bd 2c 45 bc bd ff cb 08 3d
       -0.041626915 -0.07314401 -0.09192881 0.03339767
000110 cb ac cc 3d d1 bd 90 bd d9 c8 fe 3d 84 7d bf bc
       0.09993895 -0.070674546 0.124406524 -0.02337528
000120 84 31 0e be b1 83 a3 bc d7 d5 62 3d a2 9c 00 be
       -0.13886076 -0.019960256 0.055379715 -0.1255975
000130 1c b3 bc 3c 1f d9 db 3d e7 fe f7 bc 64 63 d2 3d
       0.023034625 0.10734772 -0.030272914 0.102728635
000140 8e 76 f9 bc 9c 29 a7 bc e0 60 8a bd d1 28 ed 3d
       -0.03045204 -0.020405583 -0.06756759 0.11580051
000150 db b0 e2 bd 13 27 e0 bd b2 f1 8b bd 5d 0a 09 ba
       -0.11068889 -0.10944953 -0.06833209 -0.00052276795
000160 20 67 b1 bd 9f 46 a7 3d b4 f9 49 3d b8 b1 8a 3d
       -0.08662248 0.08167767 0.0493104 0.067721784
000170 6c 1a a4 3c 3d 12 c9 3d 2a 6d a9 bd 61 ea 28 bd
       0.02003213 0.09817932 -0.082727745 -0.041239146
000180 d0 44 c8 3d e6 6b 97 3d 4b 3b a3 bd ca ca 3d bb
       0.0977875 0.07393627 -0.079702936 -0.0028959983
000190 18 bc 70 3d d8 0f 0b 3a a5 ef b1 3d c6 96 32 bd
       0.05877313 0.000530479 0.08688287 -0.04360082
0001a0 e2 6a c0 bd b4 eb 70 3d 70 fa e6 bb ef a6 df bd
       -0.09395386 0.058818534 -0.0070488974 -0.10920512
0001b0 78 16 ba bc 2e b2 b1 bd 09 c0 53 3d 9c 34 d3 3d
       -0.022715792 -0.08676563 0.05169681 0.10312769
0001c0 87 24 0a 3d 7f 6a cb 3d a5 67 1d bd a8 b9 6a bd
       0.03372624 0.09932422 -0.03842892 -0.05730596
0001d0 e1 78 42 3c 55 1e 16 bd dd c6 ca 3d fd 6b c5 3d
       0.01186964 -0.03665002 0.099012114 0.09639738
0001e0 15 5f 35 bd 0d 0e df bd 91 55 d2 3c 6c 2a ac 3d
       -0.04428013 -0.10891352 0.025675567 0.08406529
0001f0 3c 70 38 3c 8f 10 38 bd 8f ca b5 3c 46 da e4 bd
       0.0112572275 -0.044937667 0.022191314 -0.11174445
000200 f2 f8 ac 3d 01 02 a9 3b fa 95 ec 3d 3b 58 b1 3d
       0.0844592 0.0051577096 0.11552043 0.08659407
000210 d0 b3 b4 3d ec c2 46 bd 00 e3 6c bd bb 9c b3 b7
       0.08823359 -0.048525736 -0.05783367 -2.1411446e-05
000220 5a a8 be 3d ed 6d 93 bc bc 45 b7 3d fe fc 8a bb
       0.09309454 -0.017996753 0.08948848 -0.004241585
000230 69 44 1a 3d 32 d7 8f bd cd 94 8b bc 01 a2 b8 3d
       0.037662897 -0.07023467 -0.017038727 0.09015275
000240 98 34 9f bd 7e f2 1e bd 8a ac f4 bc 1f 37 f5 bd
       -0.07773703 -0.038805477 -0.02986743 -0.11973404
000250 66 ca d1 bd 74 90 ee b9 65 78 0f bd 1c 8c ac 3d
       -0.102436826 -0.00045502523 -0.035026927 0.08425161
000260 51 39 22 bd 28 18 c3 3d 51 21 a0 3d ab 12 a2 3d
       -0.039605442 0.09526092 0.078188546 0.07913717
000270 18 dc ca bc c8 74 c8 3b 60 09 c9 bd d2 cc 89 3d
       -0.024763152 0.006117437 -0.09816241 0.067285195
000280 be 23 8c 3d ad 63 fd 3c 06 75 b4 bc 8c 60 08 3e
       0.06842755 0.030931318 -0.022028457 0.1331808
000290 10 d2 c8 bd ea 18 88 3d 7b 90 b0 3d b3 34 b7 3b
       -0.09805691 0.06645377 0.086213075 0.005590999
0002a0 de 7f bc 3d c2 2e ab bd 0e 47 bd 3d 02 ba 81 3d
       0.09204076 -0.08358528 0.09242068 0.06334306
0002b0 1a 7f 2c bd 39 1a b9 3d 52 3a f8 bc 64 fd b3 bd
       -0.0421134 0.09038205 -0.030301247 -0.08788565
0002c0 cd cd e6 3d 7d 74 03 3d 6e ce 85 3d 21 df be bb
       0.11269722 0.032093514 0.06533514 -0.005824939
0002d0 6c ce 98 3c 11 91 01 3d b3 22 30 3d 92 dc a1 bd
       0.018653117 0.031632487 0.04300184 -0.079033986
0002e0 2c 5b 87 3d b3 c9 59 bc f8 f9 72 3d 63 72 ab bd
       0.066091865 -0.013292718 0.05932042 -0.08371427
0002f0 ba 81 9d bd 8c e0 59 bd e8 0d d6 bd 19 17 b9 3d
       -0.07690759 -0.05319266 -0.10451871 0.09037609
000300 f0 ae 86 3c ab ee bf bd 31 b6 17 bd b8 b7 2d bc
       0.016440839 -0.09371694 -0.037038986 -0.010602884
000310 bd e5 c0 3d 04 b5 8c bd 29 21 c5 3d 4d e0 8f 3d
       0.09418819 -0.068704635 0.096254654 0.07025204
000320 99 c0 90 bd f3 dc f9 bd 48 34 98 3c f2 59 6b 3d
       -0.07067985 -0.12200346 0.018579617 0.057458825
000330 ca f0 42 bc 0b d4 e3 bd 72 98 94 3d f0 ad f1 bb
       -0.011898229 -0.11124428 0.07255639 -0.0073754713
000340 d8 3a 8e bd fb d6 b5 bb c1 28 9c 3d a4 aa c1 bd
       -0.06944817 -0.0055493093 0.07624961 -0.09456375
000350 bd 04 cc 3c 24 00 d5 bc 3d 57 96 bd c7 36 9a 3d
       0.024904603 -0.026001044 -0.07340858 0.07529979
000360 ce 1a 1b bc 85 b6 de 3d 04 50 af bd 02 cb 86 bd
       -0.00946684 0.108746566 -0.08560184 -0.065816894
000370 db cf 77 bc 76 3f df 3c e7 49 b8 bd 3c 0d 43 3d
       -0.01512524 0.02725194 -0.08998471 0.047620043
000380 8e b9 8f bd ad 2e a4 3d 14 2f 5a bd a4 47 25 bc
       -0.070178136 0.08016715 -0.053267553 -0.010087881
000390 6f de e0 bd c2 d3 c2 bd ff fa 89 3d 75 ee dd 3d
       -0.10979926 -0.09513046 0.06737327 0.10836498
0003a0 e6 41 ae 3d 40 66 d4 bd 4a 17 03 bd 1e b1 b1 3d
       0.08508663 -0.10371065 -0.032004632 0.086763605
0003b0 11 c9 4f 3d a1 e2 74 3d 00 54 cd 3d 65 67 21 bd
       0.05072886 0.059786443 0.10025787 -0.039405245
0003c0 62 5c ec bc f8 48 2b bc 81 77 b3 bd da ba 03 bd
       -0.028852645 -0.010454409 -0.08763028 -0.032160617
0003d0 85 40 d2 3d c8 83 b0 bc 2f ac 2b bd da 56 90 bd
       0.102662124 -0.021547213 -0.041912254 -0.070478156
0003e0 9a 44 13 bd ec 38 46 3c cf b2 87 bd d5 0c ee 3d
       -0.035954095 0.012098532 -0.06625902 0.11623541
0003f0 b0 42 7c bd 3f 3a 07 bd 7d 5c d0 bd 89 f4 8b bd
       -0.061587036 -0.033014532 -0.10173891 -0.06833751

network.2.weight f4 [256, 256]
000000 1c db 98 3c a4 db 1e bd 8c 38 c9 bc 4c b7 33 bd
       0.018659167 -0.038783684 -0.024563096 -0.043875977
000010 00 e9 38 bb b4 f0 64 3d 2c 76 d8 3c 4a 0d 1c 3d
       -0.002821505 0.055893615 0.026423536 0.03809861
000020 7a 14 4b bd 9c bd ae bc 80 b3 e8 3c c0 17 c3 bb
       -0.049580075 -0.021330647 0.028405905 -0.005953759
000030 80 d8 46 3d d0 63 34 bd f4 83 75 bd f8 1e 46 bd
       0.048546314 -0.0440405 -0.059940293 -0.048369378
000040 c0 2c 00 bd d6 b4 33 3d a0 8a b2 bc 14 28 fb bc
       -0.031292677 0.04387363 -0.021794617 -0.03065876
000050 a0 b1 1f bb a8 de 0d 3d 9e 82 7e bd 28 a6 6b bc
       -0.0024367347 0.03463617 -0.062136285 -0.014382876
000060 d8 81 bc bc 58 85 24 bd 7c 36 9b bc d0 5b c0 bb
       -0.023011133 -0.04016623 -0.018946879 -0.00587032
000070 e4 92 63 bd d4 78 48 3d 10 8f a3 3c 00 ca 12 3b
       -0.055560008 0.048943356 0.019965678 0.0022398233
000080 00 fd 8b b9 b0 37 26 3c 8a 5c 6c 3d c0 2d 46 3c
       -0.00026700646 0.010145113 0.05770544 0.012095869
000090 80 80 0d 3b 40 63 cb ba 54 e4 2d bd c8 1b 7c bd
       0.0021591485 -0.001551725 -0.04245408 -0.06154993
0000a0 f8 7f 43 bc f0 a0 67 bd 98 53 d3 3c 30 2b 0f bd
       -0.011932366 -0.056549966 0.025796697 -0.034953296
0000b0 50 ee 01 3c 90 d3 d7 3c 62 f9 0d bd 08 e6 5a bc
       0.007930353 0.026345998 -0.034661658 -0.013360508
0000c0 88 9e 4f bd b8 43 49 bc 8c 14 50 3d 5c 89 ca 3c
       -0.050688297 -0.012284212 0.050800845 0.024723701
0000d0 f4 de 2e 3d 18 6a 0c bd 48 0f 64 bd 54 be e9 bc
       0.042693093 -0.034280866 -0.055678636 -0.028533138
0000e0 b4 0f d4 bc 28 4b 18 3d 52 0d 04 bd d4 df 24 3d
       -0.025886394 0.03718105 -0.032239266 0.04025252
0000f0 30 70 44 bd a0 b4 90 3c 68 ee 08 3c 66 07 2d 3d
       -0.047958553 0.017664254 0.008357622 0.042243384
000100 f4 8a 28 3d 9a 58 45 bd c8 77 63 3d d8 1e 7b 3c
       0.04114814 -0.0481802 0.055534154 0.015327178
000110 ce f0 77 3d 98 55 d4 3c 50 d0 5a bd c8 27 81 3c
       0.060532384 0.02591972 -0.05342132 0.01576604
000120 40 e1 2c bb c0 bf f5 3c 54 6a ca bc 80 69 a2 ba
       -0.0026379377 0.02999866 -0.024708904 -0.0012391061
000130 24 66 4c bd 58 e7 2a bc 64 07 08 bd cc db 97 3c
       -0.049902096 -0.010431133 -0.033210173 0.018537425
000140 12 6f 4c bd 80 fc 2c 3a c0 28 f8 3b 00 33 dc 3a
       -0.049910612 0.0006598905 0.007573217 0.0016799867
000150 38 e1 78 3d a4 07 5d bd 44 f5 33 3d 6a f2 7e bd
       0.06076166 -0.053962365 0.043935075 -0.062242903
000160 58 5a d5 bc c0 33 e5 bc ae 65 04 bd 34 8f a4 3c
       -0.026044056 -0.027978778 -0.03232353 0.020087816
000170 64 d7 d2 bc ac ce 98 bc de 59 4c 3d 20 fe 98 3c
       -0.025737472 -0.018653236 0.04989039 0.018675864
000180 e4 68 94 3c cc 5d 8d bc 74 b4 91 3c 70 b5 dc bc
       0.018116422 -0.01725664 0.017786242 -0.026941985
000190 f0 ae 7a 3c 12 c8 5c bd a6 24 61 bd 32 48 07 3d
       0.015300497 -0.05390174 -0.05496659 0.033027835
0001a0 1c be 0c 3d ce 6a 21 3d e8 ff f0 bc e0 50 1d bc
       0.03436099 0.039408498 -0.0294189 -0.009601802
0001b0 42 03 1d bd 04 e1 11 bd 00 d8 fa b9 38 e9 45 bc
       -0.038333185 -0.035614982 -0.00047844648 -0.012079529
0001c0 da ce 16 3d de 68 4d 3d 40 3c 4d 3d a0 d0 a0 bc
       0.036818363 0.050148837 0.050106287 -0.01963073
0001d0 40 28 98 3a 44 98 b8 bc 50 cd 3d 3c ce 1d 75 bd
       0.0011608675 -0.022533543 0.011584595 -0.059842877
0001e0 20 93 47 bc 30 5b c0 bb 18 1d 66 3c 46 23 04 3d
       -0.012181073 -0.0058702454 0.014045022 0.032260202
0001f0 60 73 bb bb 38 e0 f3 bc 30 b0 65 3d f0 5a 61 bc
       -0.005720541 -0.029770002 0.05607623 -0.013754591
000200 c8 88 3e bc 92 da 12 bd 44 1d f2 3c f8 3d 10 3d
       -0.011629291 -0.035852976 0.02955497 0.035215348
000210 3c 12 0c 3d a0 b7 13 3c 24 8a 31 bd c8 95 6c 3d
       0.034197077 0.009015948 -0.04334463 0.05776003
000220 76 89 2d 3d bc 0a 1f 3d 00 92 dc 3c 80 54 25 3c
       0.04236742 0.038828596 0.026925087 0.010090947
000230 8c 7c 06 3d a0 27 82 bc 44 3d 7b bd 00 92 a8 ba
       0.03283362 -0.015888035 -0.061337724 -0.0012860894
000240 4a 4d 3e bd c6 f4 4b 3d c2 3d 60 bd b4 1c ca bc
       -0.046460427 0.04979398 -0.054746397 -0.02467189
000250 88 69 8b 3c 1c 79 e2 3c 30 bb 7f 3d ae 96 51 3d
       0.017018095 0.02764564 0.062434375 0.05116909
000260 10 a4 2e 3c 64 ff 4a 3d a0 73 3e 3b 6c f3 e5 bc
       0.010659233 0.049559966 0.0029060617 -0.028070174
000270 00 32 58 3a 00 3a 10 3c 40 54 9b 3a c0 cd 2c bb
       0.00082471967 0.008802891 0.001185067 -0.0026367754
000280 70 b3 17 bd 18 7e c4 3c d8 49 c1 3c a0 0d 01 3d
       -0.03703636 0.023985907 0.023594782 0.031507134
000290 80 69 be bc 88 62 82 3c 14 3e 26 3d 00 93 ed bc
       -0.023243666 0.015916124 0.040586546 -0.02900076
0002a0 b4 c6 94 bc 58 c2 10 3d 8c ec 11 bd f0 44 37 3c
       -0.018161155 0.03534159 -0.03562598 0.01118587
0002b0 f0 70 73 bc e4 6e b0 bc fa 83 72 bd 20 5b ae 3c
       -0.014858469 -0.021537252 -0.059207894 0.021283686
0002c0 60 71 12 3b fa f7 5a bd 50 a4 27 bc 00 bd a9 3b
       0.0022345409 -0.053459145 -0.010232046 0.0051800013
0002d0 a8 0a 41 3c 0c 03 4f bd 10 82 bf bb c4 f7 3e 3d
       0.011782326 -0.050540015 -0.005844362 0.046623006
0002e0 d0 b7 66 bd 38 85 34 bd 7e a9 20 3d 84 53 d0 bc
       -0.05632764 -0.04407236 0.03922414 -0.025430448
0002f0 1c b8 f8 bc 0a c3 20 bd 20 86 85 3c 10 35 c2 3b
       -0.030361228 -0.039248504 0.016299307 0.0059267357
000300 80 87 8b 3a 98 90 a2 3c f0 7b 99 3c ba 72 1b bd
       0.001064524 0.019844338 0.018735856 -0.03795121
000310 00 47 2f 3b c6 82 7d bd e0 12 4c bd e6 25 01 3d
       0.00267452 -0.061892293 -0.049822688 0.031530283
000320 30 9b cd 3b ac 1b 24 bd 34 94 0d bd 3e 8d 35 3d
       0.0062746033 -0.040065452 -0.034565166 0.044324152
000330 ba 24 58 bd 08 b4 1d bd 9c 2b 43 3d 7c 23 4c bd
       -0.0527694 -0.03850177 0.04764901 -0.049838528
000340 7c 62 13 bd 84 ca 12 3d 18 75 44 bd d8 ad 78 3c
       -0.035982594 0.035837665 -0.04796323 0.015178166
000350 d0 90 48 3d 80 95 00 3c 56 05 06 bd bc 8c 27 bd
       0.04896623 0.007848144 -0.032719932 -0.0409057
000360 30 1d 6b bd b4 de 08 3d 40 29 d9 ba 40 9d a6 ba
       -0.057400882 0.03341551 -0.001656808 -0.0012711659
000370 da 32 1d bd 9c e8 45 bd e0 e6 42 bc ac 1d 99 3c
       -0.038378574 -0.048317537 -0.011895865 0.018690906
000380 de 82 20 3d a8 c9 3c 3d c0 a8 b3 bb c0 61 7a bd
       0.039187305 0.046090752 -0.005482763 -0.061128378
000390 46 7a 32 3d 54 e4 cb bc 50 f7 c2 3b 20 1f 45 bc
       0.04357364 -0.024889149 0.005949892 -0.012031347
0003a0 8e 54 10 bd 3c 39 ae bc 30 34 2d bc 9e 76 4a bd
       -0.035236888 -0.021267526 -0.0105715245 -0.04942953
0003b0 ac 69 1b bd 58 21 05 bc 9c ee b1 3c 68 15 7e 3d
       -0.037942573 -0.008125626 0.021720223 0.062032133
0003c0 9e 3c 25 3d 36 ec 2a 3d c0 9b 32 bb f8 1d 5e 3c
       0.040341012 0.041729175 -0.0027253479 0.01355695
0003d0 d8 ee ac bc 62 8b 2c bd 20 9a 44 3d 8c cd ed 3c
       -0.021109983 -0.042125113 0.047998548 0.029028676
0003e0 3e 04 5d 3d b8 ec ff 3c aa be 19 bd 76 ef 67 bd
       0.053959124 0.031240806 -0.037535347 -0.056624852
0003f0 84 22 7d 3d fc 3d 39 bd b4 81 92 bc c4 0c 0a bd
       0.061800495 -0.04522513 -0.017884113 -0.03370358

network.2.bias f4 [256]
000000 9c 38 13 bd 72 fd 89 3c 29 b3 9c bc 61 31 38 3d
       -0.03594266 0.016844485 -0.019128399 0.044968966
000010 94 4f 55 bd a1 e2 e4 3c da 71 e4 bc 8c 57 17 3c
       -0.052077845 0.027940096 -0.02788632 0.009237181
000020 8c 05 32 3d 3a 98 2c 3d e7 7a 6a bd 02 df 74 bc
       0.04346232 0.042137362 -0.057246115 -0.014945747
000030 32 60 98 3c 10 04 94 bd 79 cf 5a bd f6 45 9a bd
       0.018600557 -0.07227337 -0.053420518 -0.07532875
000040 bb 91 83 bb 42 5d 96 3b da 84 0b bd 0c fe 95 3c
       -0.004015175 0.004588754 -0.034062244 0.018309616
000050 d3 3d b2 3c 17 1b 5a 3c 40 db 4b 3d 7a b4 70 bd
       0.021757996 0.013312123 0.04976964 -0.058765866
000060 44 08 71 bd 95 aa 49 3d 25 ad 3a bd 6c a1 49 3d
       -0.058845773 0.049234945 -0.04557528 0.04922621
000070 7d 36 de bc de 28 e7 bc 5c a0 25 bd cf 58 ce 3c
       -0.027125591 -0.02821773 -0.040436134 0.025188832
000080 98 05 90 bc 86 96 88 3d 27 62 8f bd bb 83 58 3c
       -0.017580792 0.06669335 -0.07001143 0.013215001
000090 e2 62 bf bb fc 28 b7 3c c7 60 38 3d 93 e5 4c 3c
       -0.005840645 0.02235841 0.04501417 0.012505907
0000a0 fd 99 79 bd 15 c1 11 3a c8 62 5b bd 76 8e 04 3d
       -0.06093787 0.00055600825 -0.053561002 0.032362424
0000b0 24 9d 02 bc ad 2a ad bc 9a 98 ba ba 73 4e 08 3d
       -0.007972036 -0.021138513 -0.0014236153 0.03327794
0000c0 af 06 32 bd 59 3f 58 3d a1 cc ef bc 6a f1 9a bc
       -0.043463405 0.052794788 -0.02927238 -0.018913943
0000d0 00 84 20 bd f3 5e 65 bb d3 e8 72 bd 70 56 90 3b
       -0.039188385 -0.003499922 -0.05930407 0.0044048354
0000e0 ed aa 16 bd a8 ad 05 3d 37 ce 7d bd 98 8d e0 bc
       -0.0367841 0.032636315 -0.06196424 -0.027411267
0000f0 9b 67 8b bd 60 d7 48 bd e1 e0 f8 bb 99 0e ca 3c
       -0.068068705 -0.049033523 -0.007595167 0.024665164
000100 d3 81 f2 3c 0e a9 80 bd 63 57 db bc 41 b2 b8 bc
       0.02960292 -0.062822446 -0.026775068 -0.022545936
000110 11 19 18 3d 0c 25 71 bc 6c 6f 86 bc 63 c2 43 bd
       0.03713328 -0.014718305 -0.016410552 -0.047792803
000120 47 1a da bc 78 c4 1c bc 42 1e 2b 3d c3 84 20 bd
       -0.026623858 -0.009568326 0.041776903 -0.03918911
000130 19 14 05 3c 73 a0 ae 3c af aa af bc d6 62 59 3d
       0.008122467 0.021316743 -0.021443693 0.053072773
000140 0d 01 6f 3d 0f e0 c8 3c 28 08 18 3d 44 b5 98 bd
       0.05835061 0.024520902 0.037117153 -0.07456449
000150 9c 44 3f 3d ac a3 ca bc 10 15 4b 3d e8 4f 52 bd
       0.04669629 -0.024736248 0.049580634 -0.051345736
000160 19 05 3d bc f5 fb 8e 3d eb eb aa 3b e4 d7 14 3c
       -0.01153686 0.06981651 0.005216112 0.009084675
000170 19 5c 9e bc 3d e0 16 bd b7 eb d5 3c 13 27 3a 3d
       -0.019331025 -0.036834944 0.026113374 0.04544742
000180 21 b6 63 3d b9 43 52 bc 05 1c 2d bd 6d 2e 37 3d
       0.055593614 -0.012833529 -0.04226305 0.04472201
000190 4c a6 1a bc 7f 77 93 3c 54 21 29 bb f5 b5 34 bd
       -0.009439062 0.018001316 -0.0025807219 -0.04411884
0001a0 16 b9 3c 3d 67 eb b3 3b d4 0b 29 bd da 97 7d 3d
       0.04607495 0.0054907086 -0.041271046 0.061912395
0001b0 70 72 76 3c a9 98 e5 bb fc 9f 2f bd 68 1b 27 3d
       0.015041932 -0.007006724 -0.042877182 0.04079762
0001c0 c5 55 4f bc 8a fb fc bc f7 d9 87 bd f4 24 fc 3c
       -0.012654726 -0.030881662 -0.0663337 0.03077934
0001d0 55 db 34 bd 64 19 63 bd 8e 97 25 3d ff b8 8a bd
       -0.044154484 -0.055444136 0.040427737 -0.067735665
0001e0 da 6e a6 bc e9 4b ec bc ef ad 81 bb f2 0a 23 bc
       -0.02031653 -0.02884479 -0.003957502 -0.00995134
0001f0 e4 d7 38 3d 22 bd 27 3d 0f 01 3b bd 07 1f 41 bd
       0.045127764 0.040951855 -0.045655306 -0.04714873
000200 32 db af bc de e3 fc 3c c1 79 8f bd 79 5b 32 3c
       -0.021466825 0.030870374 -0.070056446 0.010886067
000210 41 69 d3 bb bd 8f 77 bc 25 72 4d 3d 4a fe ea 3c
       -0.006451756 -0.0151099535 0.050157685 0.028685708
000220 0a 53 3f bc c3 d4 b7 bc 2b 70 2e bd 0e 22 47 bc
       -0.011677513 -0.02244032 -0.04258744 -0.012154115
000230 29 72 3b bd 83 08 8d bc e7 4e 22 bb c7 96 33 3b
       -0.04576317 -0.017215973 -0.0024766268 0.0027403103
000240 62 23 fc bb f3 d4 df bc 47 8f 11 bc 9f 56 c9 3c
       -0.0076946476 -0.027323222 -0.008884258 0.024577437
000250 30 10 45 3c 1e 06 d8 3b 06 de 5b bd 61 e7 48 bd
       0.012027785 0.006592526 -0.053678535 -0.049048785
000260 ad f0 22 3d 18 a3 01 bc d2 d6 46 3d 8c 72 03 bd
       0.039780308 -0.00791242 0.048544712 -0.032091662
000270 7b d2 39 3c be fd 83 3b df 0a 67 bd 97 a3 bc bb
       0.011341686 0.004028051 -0.05640685 -0.005756806
000280 e2 b2 cf 3d 2a ab c3 bc 2b ce 83 bd d5 73 59 3d
       0.10141541 -0.023885328 -0.06435808 0.05308898
000290 92 29 33 3d a8 a8 10 3d 14 64 11 3d 6e 65 7e 3b
       0.043740816 0.035317093 0.035495833 0.003881778
0002a0 3a 31 46 3d 6a db 0f bd 13 e6 c0 3c a1 24 84 bd
       0.04838679 -0.03512136 0.023547208 -0.06452299
0002b0 71 cc 89 3d 20 a4 74 bd 6a b9 b0 bd 00 89 d3 3c
       0.06728447 -0.059726834 -0.08629115 0.025822163
0002c0 6d a6 3d 3d db 62 6b bd 0b 91 46 3d d0 8b 98 3b
       0.046301294 -0.057467323 0.048478168 0.004655339
0002d0 df 8a ca 3c a3 e0 cd 3c c1 af 91 bd fa b3 88 3d
       0.024724422 0.02513153 -0.071136005 0.06674953
0002e0 c5 29 33 3d af db 44 3d 1c 4d 8c bc 32 f7 9a 3c
       0.043741006 0.04806107 -0.017126612 0.0189167
0002f0 20 5f 38 3b f7 e1 0b 3b 62 d6 29 bb 90 8a 4a 3d
       0.002813287 0.0021344402 -0.0025915136 0.04944855
000300 3c f4 e9 bc e8 9c 9c bc 02 f7 2b 3c 91 8d 92 3d
       -0.028558843 -0.019117787 0.010495903 0.07155908
000310 9e 90 1f bc 3e c3 f8 bc 5b 09 8d bd 02 f8 c2 3c
       -0.009739069 -0.030366536 -0.0688655 0.0237999
000320 b3 5f 4f 3d 3a 75 88 3b 2d 9f 6e bd 71 a5 21 bd
       0.050628375 0.004164365 -0.05825727 -0.039464418
000330 7f 0f 38 3d 1a e5 38 3c 68 e3 80 3b 97 c9 49 bd
       0.044936653 0.011285091 0.003933359 -0.049264517
000340 c7 eb 74 bd 05 0a 0d bd 7a 21 5f bd 0b d9 65 3d
       -0.059795167 -0.034433383 -0.054475285 0.05611519
000350 b4 0d 63 3c 9c ae 29 bd ec be 64 3d 1c 6a d3 bb
       0.013858248 -0.041426286 0.05584614 -0.006451858
000360 12 26 68 3d 52 d3 02 3c d1 6b b1 3c 1f 5e a0 bc
       0.05667693 0.007984953 0.021657856 -0.01957613
000370 be 07 78 bc 60 6b ec bc 6d a5 da 3c 4a b3 39 3c
       -0.015138565 -0.028859794 0.02669021 0.01133425
000380 7e 71 26 3d fc 20 63 bd 87 9e d9 3c 03 70 45 3c
       0.04063558 -0.05545138 0.02656485 0.012050631
000390 bb c6 1b bb 5e 9e 64 bc 5d 3a 58 bd 47 b0 0e 3d
       -0.0023769576 -0.013953773 -0.052790035 0.03483608
0003a0 6f 01 7f 3d 21 86 47 3d 30 01 73 bd b3 59 c6 bc
       0.062257227 0.0487119 -0.059327304 -0.024212694
0003b0 b2 36 ed 3c b0 48 94 3d 76 cb 82 bd 5e 70 1d 3d
       0.028956745 0.072404265 -0.06386463 0.03843724
0003c0 6b dd 8b bd ae 86 9a bd cd 94 52 bd 7d 48 32 bd
       -0.068293415 -0.07545219 -0.05141144 -0.04352616
0003d0 11 67 33 bd 5e bf 07 bd 55 bc eb 3b 1d 31 cd bc
       -0.043799464 -0.033141486 0.007194082 -0.025047833
0003e0 c3 6a f9 3c 5c 06 33 3c 05 2a 7e bc 85 6a ef bc
       0.030446416 0.010926809 -0.015512948 -0.029225597
0003f0 7f 6a e8 3c 6b 4b 4e bc fd e3 1d bc 07 a9 08 3d
       0.028371094 -0.012591223 -0.009636876 0.033364322

network.4.weight f4 [60, 256]
000000 88 45 4c bc 0a bd 11 bd 70 a6 f1 3b 30 87 f9 bc
       -0.012467749 -0.035580672 0.007374577 -0.03045997
000010 38 82 fd 3c 40 c5 f9 3c 99 ef d9 bc ad 3c de 3c
       0.030945882 0.030489564 -0.026603507 0.027128542
000020 63 ed ff 3b 5a 75 6a 3d ae 11 bf 3d d1 78 04 bd
       0.007810281 0.05724082 0.09329544 -0.032341782
000030 04 3c 86 3d 01 c3 d0 3b a3 25 a7 3c e0 33 2e 3b
       0.06554416 0.0063709025 0.020403689 0.0026581213
000040 d1 28 a2 3b 9a cb b4 bc d1 8b 3c bd 13 bb 1d bd
       0.0049487134 -0.022069741 -0.046031777 -0.038508486
000050 2e b1 2f 3c 58 25 40 3d ae 98 22 bc ef 99 08 3d
       0.010723395 0.046910614 -0.009924097 0.033349928
000060 cf 01 9c bc 3e 93 08 3d 98 a1 4b 3c e9 81 f3 3d
       -0.019043831 0.033343546 0.012428664 0.11890013
000070 b3 6a 56 3d 38 6a bd bc 00 c5 df 3a 36 f4 36 bd
       0.05234785 -0.023121938 0.001707226 -0.04466649
000080 df 2c bb 3c 7f 7d c5 bb 8a 90 1a bd fc 7c dd bc
       0.022848545 -0.006026923 -0.0377355 -0.027037136
000090 5a cf 4b bd 49 d0 89 bb b7 61 93 bc 7e a5 37 bd
       -0.049758293 -0.0042057377 -0.01799093 -0.04483556
0000a0 cd 0f 59 3c b4 35 2b bd 58 75 57 3c 30 e5 c5 bc
       0.013248396 -0.041799262 0.0131505355 -0.024157137
0000b0 a8 23 c5 3b f6 bd f2 bc 38 40 38 bc 8c aa 33 3c
       0.0060162134 -0.029631596 -0.01124578 0.0109659545
0000c0 1c d7 d9 3c 5c 51 87 3d fb e8 67 3d 62 d1 7b 3d
       0.02659183 0.06607315 0.056618672 0.06147898
0000d0 74 d7 72 bd c4 2a 34 bc af 60 80 3c a4 67 f0 bc
       -0.059287503 -0.010996524 0.015671102 -0.029346295
0000e0 6a f2 82 3d a8 6a 26 bd 08 d6 3f 3c c4 12 96 bc
       0.06393893 -0.04062906 0.011708744 -0.018319495
0000f0 e2 32 25 bc df 18 91 3d 7c a6 35 3d ed a8 1a bd
       -0.010082932 0.07084822 0.044348225 -0.037758756
000100 39 59 38 bd c0 bb d2 3c f6 78 1f bd bf ac cf bb
       -0.045006964 0.025724292 -0.038933717 -0.0063377316
000110 4f c1 4e 3d 78 e0 7d bd 48 51 4a 3d 0c 8d 9b 3c
       0.050477322 -0.06198165 0.049393922 0.018988155
000120 ff 6d c4 3c 7b b0 2b 3c 97 01 47 bd 58 88 07 3d
       0.023978231 0.010479088 -0.0485855 0.033089012
000130 40 99 09 bd 5f 8b 1d bd 2e 99 9a 3b 30 93 45 3d
       -0.033593416 -0.038462993 0.0047179675 0.048236072
000140 cc cb d6 38 0a cf 50 bc a8 31 4c 3d 45 18 71 bd
       0.00010242275 -0.012744674 0.049852043 -0.058861036
000150 0f 0d 97 3d e2 0a 66 3a 02 fb b2 3b 34 de 9f 3c
       0.073755376 0.00087754254 0.0054620514 0.019515134
000160 cf f1 0a 3c a0 75 32 3d 47 9a 41 3d 3a fb 6a bd
       0.008480503 0.043569207 0.04726627 -0.057368495
000170 e3 29 32 3d 58 59 80 3d a2 56 02 3d 54 85 56 3d
       0.043496978 0.06267041 0.0318209 0.052373245
000180 21 1f be 3d bc 90 8f 3d 91 12 cc 3c 6c ad 22 3d
       0.09283281 0.07010028 0.024911197 0.03971617
000190 7f e5 71 bd 5a f1 26 bd d4 df 99 3c 4b cd 93 3c
       -0.059056755 -0.040757515 0.018783487 0.018042227
0001a0 43 eb 5a bc b8 ab 14 bd 99 26 2b bc 4b df f5 3c
       -0.013361755 -0.036296576 -0.010446214 0.030013701
0001b0 89 0b d2 bc da 05 7f bb 30 dd 86 bb 07 80 66 ba
       -0.025640266 -0.00389134 -0.004115723 -0.0008792881
0001c0 fa aa 14 3d 2e 24 1a bd f0 09 76 3d 8b d9 53 3d
       0.03629587 -0.03763216 0.06006807 0.051721137
0001d0 5c 4c 41 bc 78 4b 8a 3c b7 4a 96 3d a2 24 1e bd
       -0.011797991 0.01688169 0.073384695 -0.038609155
0001e0 a5 b4 31 bd f8 ff 58 bd d9 c1 ed bc bd 46 1f bb
       -0.043385167 -0.052978486 -0.029023098 -0.0024303638
0001f0 ec 50 18 3d 08 49 dc 3d c8 86 40 3d 56 e2 f5 3c
       0.037186548 0.10756117 0.047003537 0.030015152
000200 0e 6c ba 3d 31 9c 87 3c b7 72 38 3d 41 94 2f bc
       0.09102641 0.01655397 0.045031276 -0.010716499
000210 2a ad 96 3d a0 6a 90 3c 48 fb 94 3d fd 22 e8 3b
       0.07357247 0.017628968 0.072744906 0.007084249
000220 b0 2e a5 bb 6d fe 48 bd f3 26 51 bd 4d d1 ef 3c
       -0.005040966 -0.049070764 -0.051062535 0.029274607
000230 c4 18 d3 3d 60 da 30 3c 96 42 46 bd 80 0f 04 3e
       0.10307458 0.010794252 -0.048403345 0.12896538
000240 42 18 3c bd 3c 22 9a 3c 4b 9d 47 3d b4 ba f5 3d
       -0.04592157 0.018815152 0.04873399 0.119985014
000250 32 d5 9e 3c 89 7b 15 bd eb 7a 5e 3d 88 ce 47 3c
       0.019388769 -0.036494765 0.054316442 0.012195237
000260 04 3d bb bc 46 8c 66 bd cc 15 e0 bc af 01 51 3d
       -0.022856243 -0.05628612 -0.027354144 0.051026996
000270 05 c1 ba 3c 85 a5 bd 3b bd b6 c7 bc e6 b0 a1 3d
       0.022797117 0.0057875537 -0.024379129 0.07895069
000280 cc af 12 3e 2b 8a 33 3d 30 eb bd bb 1e f5 36 3d
       0.14324874 0.04383294 -0.005795859 0.044667356
000290 c9 9b 9b bc 96 68 fe 3c cf e4 a1 3d 36 3b 1b 3e
       -0.018995183 0.03105573 0.0790497 0.15159306
0002a0 c3 ae 47 bd 7a 44 33 3c f7 f1 e7 3c f2 c8 94 bc
       -0.04875065 0.010941619 0.02831362 -0.018162224
0002b0 4b a9 10 3d 00 62 a9 3c 52 3d 15 3d 00 bb 5f bb
       0.0353177 0.020676613 0.036435433 -0.003413856
0002c0 12 64 c7 bc 53 0b 14 bc 31 ad 90 bc c8 a8 65 3c
       -0.02433971 -0.009035903 -0.01766071 0.014017291
0002d0 ed 9d 56 3d 76 a4 fe 3c 0b 45 de ba 96 c4 0f bd
       0.052396704 0.03108428 -0.0016957832 -0.03509959
0002e0 30 e2 37 3d 14 e5 2c 3d 30 72 87 3d 2a 23 94 bc
       0.044893444 0.042210653 0.066135764 -0.018083174
0002f0 12 74 a5 3d 3b 68 8d 3c d4 ba 94 3d f6 a4 f6 3c
       0.08078779 0.017261615 0.07262197 0.030107956
000300 ba dc 21 3d c9 1b 66 bb 16 59 e7 bc e9 af c3 3c
       0.039517142 -0.0035111776 -0.028240722 0.023887591
000310 f6 9b eb 3d 76 e7 19 bd c4 42 ff 3a 97 bf 26 bd
       0.115043566 -0.037574254 0.0019474854 -0.040710058
000320 48 a6 b1 bc 03 81 ba bc 73 24 02 bc 30 c7 57 3d
       -0.021685734 -0.022766596 -0.0079432605 0.052680194
000330 bc c9 fb 3c 62 fb b7 3d 6b 52 14 3d e8 fc 80 bb
       0.030735843 0.08983494 0.036211412 -0.003936399
000340 8a eb 42 bd 99 87 15 3d 4d d6 11 bd 92 89 47 3d
       -0.04758791 0.03650627 -0.035604764 0.04871518
000350 61 d2 0f bd 11 85 82 bb 30 82 40 3d 4f 01 7c 3c
       -0.035112742 -0.003983148 0.046999156 0.015381171
000360 84 35 e5 bc 8d 94 62 bc c1 51 b0 bc 52 d5 59 3c
       -0.02797962 -0.013829363 -0.021523358 0.013295488
000370 5c 8e 37 bd da 21 09 3d c3 b6 8f bc 97 30 60 bc
       -0.0448135 0.03347955 -0.017543202 -0.01368346
000380 41 4c aa 3c 8c 87 67 bd 45 d9 e6 3d 28 ff 31 3d
       0.020788314 -0.056525752 0.112719096 0.043456227
000390 c6 2b ea 3a d6 63 70 3d 80 85 79 3d 54 87 18 bd
       0.0017865829 0.05868896 0.06091833 -0.037238434
0003a0 a2 db 4e 3d 40 d7 d2 3d dc 53 5d bd 61 c1 03 bc
       0.050502427 0.10294962 -0.054035053 -0.008041711
0003b0 b8 59 0d bd 40 81 82 3b 08 dc 3c bc 82 00 81 3d
       -0.03450939 0.003982693 -0.011527069 0.06298925
0003c0 50 3f 40 3d fd 02 21 bc c0 97 94 bc 52 71 25 bd
       0.04693538 -0.009827373 -0.018138766 -0.040391274
0003d0 5f 5d dc bc 8c ac 89 ba 1a ac 63 3d 07 71 a3 3c
       -0.026899992 -0.0010503693 0.05558405 0.019951357
0003e0 bb fc 08 3c 8e fe 5b bd 10 31 12 bc 26 a1 e5 bc
       0.008361037 -0.05370956 -0.00892283 -0.028030943
0003f0 6c 73 28 3d 02 e3 90 3c bb 28 1f 3c 58 84 0b bd
       0.0411257 0.01768637 0.009714301 -0.03406176

network.4.bias f4 [60]
000000 bb a6 9d 3d 08 57 0b 3d 6a 4d f9 3c 40 26 57 3d
       0.07697817 0.034018546 0.030432422 0.052526712
000010 19 47 e3 bc 16 4e 22 bd ab 3a c6 bc 0f 9e 0f bd
       -0.027743863 -0.03962525 -0.024197897 -0.035062846
000020 34 23 24 bc 88 29 61 3c ea dc d9 3c e6 88 f6 bc
       -0.010018159 0.013742812 0.026594598 -0.030094575
000030 21 3c d4 bc 95 5f de bb 33 68 a9 bc 23 80 15 3d
       -0.025907578 -0.0067862966 -0.020679569 0.036499154
000040 2f 24 ad 3d 64 78 21 bc 21 d4 e2 3c ed e0 65 3d
       0.08454167 -0.0098553635 0.027689042 0.05612271
000050 64 8f 67 3d c7 41 9c 3c e3 4e 95 3c 93 51 28 3d
       0.056533232 0.019074334 0.018226093 0.04109342
000060 d2 af 3f bc b9 95 d2 bc 4d 5f 1f bd 8a 64 6a bd
       -0.011699634 -0.025706159 -0.038909245 -0.057224788
000070 57 4e 4e 3d fa 8e 60 3d c1 55 0f bd d4 12 2c 3c
       0.05036768 0.054823853 -0.03499389 0.010502536
000080 94 b2 ce bb fb d4 78 3c cf d7 47 bd 0f 88 40 bd
       -0.0063079093 0.015187497 -0.048789795 -0.047004756
000090 b3 6e 27 bd 0e 45 c3 bc 10 d4 92 3d c9 f2 44 3d
       -0.040877055 -0.023836639 0.07169354 0.0480831
0000a0 19 ca ca 3a 9e 56 17 bd ab a5 11 3d 23 f6 39 3c
       0.0015471607 -0.03694784 0.035558384 0.0113501875
0000b0 61 2d 51 bc 7e a9 b7 ba 8d 0e 63 3d e8 7f 3b bd
       -0.012767167 -0.0014012305 0.0554338 -0.045776278
0000c0 eb f8 d4 bc f1 94 0d bd 06 31 09 3d 5b 47 53 bb
       -0.0259976 -0.03456587 0.033494018 -0.0032238576
0000d0 b4 af 00 3d 30 41 5d 3d 91 94 87 3d 33 2e a0 3d
       0.031417564 0.054017246 0.06620134 0.07821312
0000e0 1c cb da 3c 7d 49 ee 3b f0 ad 22 3d a3 38 a1 3b
       0.026708178 0.007271944 0.03971666 0.0049200817
