assets/output/dqn_humanoid_model.pth (torch, 401817 bytes, 6 tensors)

network.0.weight f4 [256, 71]
0	0xbe2b7fb4	-0.16747934
1	0x3e4253e8	0.1897732
2	0xbd318a01	-0.0433445
3	0x3e200a56	0.15628943
4	0xbeaa2ccb	-0.332373
5	0x3e4b9808	0.19882214
6	0x3e380881	0.17971994
7	0xbe5a2c98	-0.21306074
8	0xbea2a873	-0.31769142
9	0xbe8d2fc7	-0.27575514
10	0xbeafa11c	-0.34302604
11	0xbcff6b0a	-0.03117897
12	0xbdf84761	-0.121229894
13	0xbdb10c6d	-0.08644948
14	0xbd688aa2	-0.056772836
15	0x3e838a3b	0.256914
16	0x3e994f99	0.2994354
17	0x3ea5bfaa	0.3237279
18	0x3e3030a4	0.17206055
19	0xbe1bb523	-0.15205817
20	0x3ed6ca38	0.41951156
21	0x3ef32d4b	0.47495493
22	0x3eb4370e	0.35198253
23	0x3eee3097	0.46521446
24	0xbef60d52	-0.48057038
25	0xbef1343f	-0.47110173
26	0xbec09d37	-0.37619945
27	0xbf18002c	-0.5937526
28	0xbf0ef17e	-0.5583724
29	0x3f9719ec	1.1804786
30	0xbf3adc62	-0.7299253
31	0xbf14c4bb	-0.58112687
32	0xbf42b602	-0.7605897
33	0xbf3d00f8	-0.73829603
34	0xbf071dde	-0.5277995
35	0xbf0e5858	-0.5560355
36	0xbf03a040	-0.514164
37	0xbeaf8cc4	-0.34287083
38	0x3eadbf55	0.33935037
39	0xbf1f1bd9	-0.6215187
40	0xbf2c3c66	-0.6727966
41	0xbf3d68f4	-0.7398827
42	0xbf28b190	-0.6589594
43	0xbd9b5cdf	-0.07586073
44	0xbd501814	-0.050804213
45	0xbcd6e7de	-0.02623361
46	0x3d0708ac	0.032967255
47	0x3ce2b125	0.02767236
48	0xbdc1a06d	-0.09454427
49	0xbc5c2ba5	-0.01343814
50	0x3d88b20e	0.06674586
51	0x3ddee009	0.10882575
52	0x3d810fbe	0.06301831
53	0xbd2a60db	-0.041596275
54	0x3cb3c295	0.02194337
55	0xbe029109	-0.12750639
56	0x3d154892	0.03644616
57	0xbd17dab1	-0.037073795
58	0xbcdfc61a	-0.027316142
59	0xbbd0b583	-0.006369294
60	0x3e46a8c3	0.19400315
61	0x3db73b4c	0.08946857
62	0xbce9f3a9	-0.028558569
63	0x3d9eea00	0.07759476
64	0x3de0f8b2	0.10984935
65	0x3cf375a2	0.029719178
66	0x3d49a515	0.0492297
67	0x3eb93d0f	0.36179397
68	0x3d4fb4d7	0.05070957
69	0x3dba7261	0.09103847
70	0xbdea3bc7	-0.11437183
71	0x3bdfe724	0.006832974
72	0x3dd6f655	0.10496203
73	0x3eec3730	0.46135855
74	0x3d9a835c	0.07544586
75	0x3ec27138	0.37977004
76	0x3eae87d9	0.3408802
77	0x3e1159db	0.14194433
78	0x3de7f3e9	0.11325819
79	0x3ce62748	0.028094903
80	0xbc075e0f	-0.008262171
81	0x3e54c5cb	0.20778577
82	0xbecd08e9	-0.4004586
83	0xbf1becd3	-0.6090824
84	0xbeefdd15	-0.4684836
85	0xbf02bc82	-0.5106889
86	0x3eb2db2e	0.34932846
87	0x3ea10a6e	0.3145327
88	0x3ed438ec	0.41449678
89	0x3e98dd7b	0.29856476
90	0xbd2f2f95	-0.042769987
91	0x3ed8a19e	0.42310804
92	0x3ee566c1	0.44804958
93	0x3ed09f72	0.40746647
94	0x3e7b86c1	0.24563123
95	0xbe0ae14d	-0.13562508
96	0xbec24846	-0.37945765
97	0xbed3e791	-0.4138761
98	0xbf0802f0	-0.5312948
99	0xbf01ce3c	-0.50705314
100	0x3e214140	0.15747547
101	0xbf34e7cd	-0.706662
102	0xbf569fbd	-0.8383749
103	0xbf51060b	-0.81649846
104	0xbf66518f	-0.899682
105	0xbe574372	-0.21021822
106	0xbe984c4e	-0.29745716
107	0xbe9968f1	-0.29962876
108	0xbe5bc674	-0.21462423
109	0x3e492fcd	0.19647141
110	0xbe4b397b	-0.19846146
111	0xbda2b08e	-0.079438314
112	0xbe6368bf	-0.22207926
113	0xbd2cbe53	-0.042173695
114	0x3db2b859	0.08726568
115	0xbdc0cec3	-0.09414437
116	0xbcc15959	-0.023602175
117	0xbdfcae22	-0.12337901
118	0xbde42f8a	-0.1114188
119	0xbdce0066	-0.1005867
120	0x3dd1dee3	0.102475904
121	0x3d810c5c	0.063011855
122	0xbb034c07	-0.002003433
123	0x3e233106	0.1593667
124	0xbe106ab4	-0.14103204
125	0xbdc7bea5	-0.097531594
126	0xbd690f26	-0.056899212
127	0xbe1a6ee0	-0.15081358
128	0xbd862388	-0.06549746
129	0xbdf852a4	-0.121251374
130	0xbd499f87	-0.049224403
131	0xbe615408	-0.22004712
132	0xbe3397b1	-0.17538334
133	0xbdd55288	-0.10416132
134	0xbc56dc7f	-0.013114094
135	0xbddf9cd0	-0.109185815
136	0xbdbfdf00	-0.09368706
137	0xbddb9836	-0.10722391
138	0xbe6bcf47	-0.23028289
139	0x3e9428b7	0.28937313
140	0x3ea714c1	0.3263302
141	0x3e941c8b	0.28928027
142	0x3d8dede8	0.06930143
143	0xbd0fe536	-0.035130702
144	0xbe0d8acf	-0.13822483
145	0xbd34d447	-0.044147756
146	0x3d7fbcd2	0.062435932
147	0xbc8ea9c2	-0.017414931
148	0xbdc23f80	-0.09484768
149	0xbdb7e8b1	-0.08979929
150	0xbde11dc0	-0.109920025
151	0xbdcacb15	-0.09902016
152	0xbcbbd173	-0.022927022
153	0x3d877c1b	0.06615468
154	0x3d8598f5	0.06523315
155	0xbde836ff	-0.11338615
156	0x3d99ce1f	0.075100176
157	0xbdcade08	-0.0990563
158	0xbd001ee0	-0.031279445
159	0xbd5e748e	-0.054310374
160	0xbcedf806	-0.02904893
161	0xbd2a9b88	-0.041652232
162	0xbdd78bd9	-0.10524721
163	0xbdcf4dc9	-0.10122258
164	0xbc8de68b	-0.017321846
165	0x3b366e02	0.0027836566
166	0xbd0fb223	-0.035081994
167	0x3d460231	0.048341934
168	0xbdd3508d	-0.10318098
169	0xbb8f4d81	-0.004373253
170	0x3ddd314c	0.10800418
171	0xbd1befe9	-0.038070593
172	0x3dd88d70	0.10573852
173	0x3d2a31b9	0.041551325
174	0xbdde4550	-0.10853064
175	0x3d96da9a	0.07365914
176	0xbc25d688	-0.010121949
177	0xbd4a5dab	-0.049405735
178	0x3dc9accc	0.098474115
179	0xbdbd17ca	-0.09233053
180	0xbba046f4	-0.004891271
181	0xbcab13cf	-0.020883469
182	0x3db5af79	0.088713594
183	0x3d17ee10	0.03709227
184	0x3d79d004	0.060989395
185	0x3d09cf51	0.033644978
186	0xbd16c231	-0.03680629
187	0xbd0817d8	-0.033225864
188	0xbdbcdc41	-0.092216976
189	0x3d8f21bc	0.06988856
190	0x3dcc69e5	0.09981135
191	0x3da593b8	0.08084816
192	0xbdac2b88	-0.084067404
193	0x3ba1d41c	0.0049386155
194	0xbdf25b66	-0.11833839
195	0xbd5cbea3	-0.053892743
196	0xbd6c685f	-0.057716724
197	0x3d54f925	0.051995415
198	0xbd119be0	-0.035549045
199	0xbc6bef50	-0.014400318
200	0xbbdf6e03	-0.0068185343
201	0x3d847d1e	0.06469177
202	0xbd6aefc3	-0.05735756
203	0xbd91bc26	-0.071159646
204	0xbd7003ff	-0.05859756
205	0x3dbf3ea3	0.09338119
206	0xbd4ce793	-0.050025534
207	0x3dbdedbc	0.0927386
208	0x3d119ced	0.035550047
209	0x3cfa983f	0.030590175
210	0x3c261871	0.010137663
211	0xbc4bce9d	-0.012439397
212	0x3cd443c5	0.025911221
213	0xbd972aec	-0.073812336
214	0xbd1c5899	-0.03817043
215	0xbe894ca8	-0.26816297
216	0xbd57149e	-0.052509896
217	0xbe9f1419	-0.3107002
218	0xbd3e30f8	-0.04643342
219	0xbe7b088a	-0.24514976
220	0xbe2c4eec	-0.16826981
221	0xbd2d7452	-0.04234726
222	0xbdef5d53	-0.11687722
223	0xbe202438	-0.15638816
224	0x3e9a8341	0.30178264
225	0x3eed4569	0.46342018
226	0x3ea3e3e6	0.3200981
227	0x3ebdebe9	0.37094048
228	0xbe9b000b	-0.3027347
229	0xbe8f9c79	-0.28049067
230	0xbe85f2d0	-0.26161814
231	0xbe28fda8	-0.16503012
232	0x3d0fb55b	0.035085063
233	0xbdf65327	-0.12027579
234	0xbe1dac75	-0.15397818
235	0xbe9a6c1e	-0.30160612
236	0xbe318205	-0.17334755
237	0xbe1ec9ec	-0.15506715
238	0x3e4c1313	0.19929151
239	0x3e91a9a3	0.28449735
240	0x3e93dab5	0.28877798
241	0x3ead6081	0.3386269
242	0xbdac5894	-0.084153324
243	0x3e3e6f8b	0.18597238
244	0x3e7cce3f	0.24688052
245	0x3d916d1b	0.07100888
246	0x3e8b0d1d	0.27158442
247	0xbdf2af7a	-0.11849876
248	0xbc99649e	-0.018724736
249	0xbd260bca	-0.040538587
250	0xbda9b55d	-0.082865454
251	0xbd860c57	-0.065453224
252	0x3e834bf7	0.25643894
253	0x3dfd2761	0.123610266
254	0x3db3e735	0.087843336
255	0x3dea5013	0.11441054

network.0.bias f4 [256]
0	0x3e89fc0f	0.26950118
1	0xbccc9d8a	-0.024977464
2	0xbe191388	-0.14948857
3	0x3d35128d	0.044207145
4	0x3dcd0986	0.10011582
5	0x3cb9b8c3	0.022671109
6	0x3c1fd8b0	0.009756252
7	0x3d6e267d	0.058142174
8	0x3d111a11	0.03542525
9	0x3ba5f686	0.0050647883
10	0xbddd3a1d	-0.108021
11	0xbc66a120	-0.014076501
12	0x3dc402f7	0.09570878
13	0x3ccd7eb3	0.025084829
14	0xbe04895b	-0.12943022
15	0x3e4e4bf6	0.20146164
16	0xbd9f5d7f	-0.07781505
17	0x3ae27af2	0.0017279072
18	0x3dd26eed	0.10275064
19	0xbde95f5a	-0.1139514
20	0x3ddb07ae	0.10694824
21	0x3cc6453d	0.024202937
22	0xb9b539ed	-0.00034566168
23	0xbb8af8ac	-0.00424107
24	0x3e10fc8a	0.14158836
25	0x3df1be4b	0.11803874
26	0xbd35237f	-0.044223305
27	0x3c8f5de2	0.017500822
28	0x3de7be96	0.11315648
29	0xbe00eb7c	-0.1258983
30	0x3e544da2	0.2073274
31	0xbd8e5921	-0.06950594
32	0x3d2d7df1	0.042356435
33	0xbc413758	-0.01179298
34	0x3d1553c9	0.036456857
35	0xbc89b0d5	-0.016807953
36	0xbdbe1e1e	-0.09283088
37	0x3e007791	0.12545611
38	0xbd2acb21	-0.041697625
39	0xbd36fd73	-0.0446753
40	0x3d07cbdf	0.03315341
41	0x3dbbae80	0.091641426
42	0x3e0878dd	0.13327356
43	0xbe0f889c	-0.14016956
44	0x3d867e0e	0.06567012
45	0xbe2817a2	-0.16415265
46	0xbd26c9cd	-0.040719796
47	0xbc264456	-0.0101481285
48	0x3c8393d9	0.01606171
49	0xbae7551f	-0.001764927
50	0x3e32ebde	0.17472789
51	0x3d8e85ad	0.069590904
52	0x3dbb84fc	0.09156224
53	0x3da50686	0.08057885
54	0xb9cecad7	-0.0003944251
55	0x3d1a5e90	0.037687838
56	0x3e26c55a	0.16286221
57	0xbe33cff9	-0.17559804
58	0x3cbd9a3f	0.02314484
59	0x3cebb741	0.028773906
60	0x3e08832b	0.13331287
61	0x3cddfa74	0.027096964
62	0x3d57f4dd	0.052723754
63	0xbc9b5536	-0.01896153
64	0x3c162293	0.009163517
65	0x3b9b3116	0.004736076
66	0xbd1c5fb4	-0.038177207
67	0x3cababe3	0.020955985
68	0x3e3d9a4a	0.18515888
69	0xbde9ad23	-0.11409976
70	0x3d947072	0.0724801
71	0x3d8be8ac	0.06831488
72	0xbdc43b2b	-0.09581598
73	0x3d92c42f	0.07166325
74	0x3de66b34	0.11250916
75	0xbd42deac	-0.047575638
76	0xbd5b10b1	-0.053482715
77	0x3df1f8df	0.118150465
78	0x3e37c04f	0.17944454
79	0x3dd0eb43	0.102011226
80	0xbdcbd58e	-0.09952842
81	0xbdbb7d02	-0.09154703
82	0xbe016ff8	-0.12640369
83	0x3e14144c	0.14460868
84	0xbdb2e8e5	-0.08735827
85	0xbd96c932	-0.07362594
86	0xbd97b7d6	-0.07408111
87	0x3cd55987	0.026043667
88	0xbdc28566	-0.094981
89	0x3d1830f7	0.03715607
90	0x3db34b5d	0.08754609
91	0x3dd6c81c	0.104873866
92	0x3d74c126	0.059754513
93	0x3e3ee5f4	0.18642408
94	0xbddb6541	-0.10712672
95	0xbdf024da	-0.11725779
96	0x3e294dce	0.16533586
97	0x3cf1385e	0.029445823
98	0xbdfc7d02	-0.12328531
99	0xbcd4c4f6	-0.025972825
100	0x3dcde999	0.10054321
101	0x3d093f7d	0.033507813
102	0x3d84fd6b	0.06493648
103	0xbb2d22bf	-0.0026418415
104	0xbdef0905	-0.11671642
105	0x3da6e9c5	0.08150057
106	0xbd0d9e4a	-0.034574784
107	0xbcd46827	-0.02592857
108	0x3d846422	0.06464411
109	0xbd45cada	-0.048289157
110	0x3d895b6b	0.0670689
111	0x3df8b059	0.12143011
112	0x3cb91699	0.022593783
113	0x3e0b3094	0.1359275
114	0x3dd52a48	0.10408455
115	0xbc456fe8	-0.012050606
116	0x3d201f2e	0.039092235
117	0xbcf9ca93	-0.030492103
118	0x3e20ed36	0.15715489
119	0x3d801212	0.06253447
120	0x3ca4c096	0.020111363
121	0xbd6ca292	-0.057772227
122	0x3e589621	0.2115102
123	0x3d86ab7a	0.06575675
124	0xbcd35b3f	-0.025800345
125	0xbdb0bc46	-0.0862966
126	0x3da91e7e	0.08257769
127	0xbdca1c3f	-0.09868669
128	0x3dc240d6	0.09485023
129	0x3d6971d2	0.056993313
130	0x3e3f5680	0.18685341
131	0xbbb506d9	-0.005524498
132	0x3d799507	0.06093314
133	0x3d07f098	0.033188432
134	0xbd9cea1d	-0.07661841
135	0x3e0a1165	0.13483198
136	0x3e2894d0	0.16463017
137	0xbc3914b5	-0.011296441
138	0x3e161677	0.14657007
139	0xbc648984	-0.013948802
140	0x3d779467	0.060444262
141	0xbd54987f	-0.051903244
142	0x3ceb9eb8	0.028762206
143	0x3e3beb62	0.1835151
144	0xbd078d16	-0.033093534
145	0x3ad96b9d	0.0016587857
146	0xbd006dfa	-0.03135488
147	0xbdf96bde	-0.12178777
148	0xbde1c04f	-0.11023008
149	0x3d4827d2	0.0488661
150	0xbc4186bb	-0.011811907
151	0x3e24ec67	0.16105805
152	0x3d043637	0.032278266
153	0x3e048348	0.12940705
154	0x3da5dd31	0.080988295
155	0x3db82790	0.08991921
156	0xbd16cb63	-0.03681506
157	0x3d7b9a30	0.06142634
158	0xbd87f393	-0.06638255
159	0x3df8a30f	0.12140476
160	0x3d044f21	0.032302026
161	0x3dc21851	0.09477294
162	0x3cdfc726	0.027316641
163	0x3e2951e4	0.16535145
164	0xbdf69018	-0.120392025
165	0x3d9d5e93	0.07684054
166	0x3cddadd4	0.027060427
167	0xbadec3cb	-0.0016995607
168	0x3de55c3d	0.11199234
169	0xbcbe5c1e	-0.023237284
170	0x3de12256	0.10992877
171	0x3c8df850	0.017330319
172	0xbd29b9ae	-0.041436844
173	0x3df3a42d	0.118965484
174	0xbc2e89f7	-0.010653011
175	0xbe2bdcf8	-0.16783512
176	0x3e28bc1d	0.1647801
177	0x3dcf7a59	0.10130758
178	0x3d035131	0.032059852
179	0xbcfe8d89	-0.031073349
180	0xbcd15db7	-0.025557382
181	0x3d362b3b	0.04447482
182	0x3e5eb7e8	0.21749842
183	0xbdc250af	-0.094880454
184	0x3df0df53	0.11761346
185	0x3cf780ac	0.030212723
186	0x3dfdb86e	0.12388693
187	0xbd1d4130	-0.038392246
188	0x3d209e70	0.039213598
189	0xbb6da68b	-0.0036262597
190	0xbdcea2b0	-0.10089624
191	0x3e24bdc9	0.16088022
192	0x3d14d6ce	0.036337666
193	0xbdad01ac	-0.084475845
194	0xbdcbc298	-0.09949225
195	0x3da6ed7a	0.08150764
196	0x3dc2c485	0.095101394
197	0xbd96f49c	-0.07370874
198	0x3e39c619	0.18141975
199	0x3d844ede	0.06460355
200	0xbd67084d	-0.0564044
201	0xbdcff71d	-0.10154555
202	0xbc916ed7	-0.017753048
203	0x3d9d9bca	0.0769573
204	0xbd6d2e84	-0.05790569
205	0xbdf1dd0a	-0.11809738
206	0x3de715bf	0.112834446
207	0x3cc8adf1	0.024497004
208	0xbdebfe8a	-0.11523159
209	0x3c0fc160	0.008774132
210	0x3d82326c	0.063572735
211	0xba951544	-0.0011374136
212	0xbcbc8537	-0.02301274
213	0xbd24239e	-0.04007303
214	0xbdca8659	-0.09888906
215	0x3e13cbc1	0.14433195
216	0x3d1e4b2b	0.038645905
217	0x3dc372af	0.095433585
218	0xbe1f6b4d	-0.15568276
219	0x3d3a3c40	0.045467615
220	0x3cf1ce1e	0.02951723
221	0x3d1604da	0.03662572
222	0xbd2c6de6	-0.042096995
223	0x3d876455	0.06610934
224	0xbd042006	-0.032257102
225	0x3e3bf9d5	0.18357022
226	0x3c839574	0.016062476
227	0xbd6e9ccd	-0.058255006
228	0xbd8bf31e	-0.0683348
229	0xbe1dc114	-0.15405685
230	0x3dcc225f	0.09967493
231	0x3e5ecb13	0.21757154
232	0x3e0311f1	0.12799813
233	0xbd9ab0a9	-0.075532265
234	0xbd168525	-0.03674807
235	0x3e0259f6	0.1272963
236	0x3de53a13	0.111927174
237	0x3d71162d	0.05885904
238	0x3e166a90	0.14689088
239	0x3d63221b	0.055452447
240	0xbd8964a8	-0.06708652
241	0x3b41f32f	0.0029594412
242	0xbdcdff90	-0.1005851
243	0x3c793f39	0.015212827
244	0x3e122ba4	0.1427446
245	0x3c5711d0	0.013126805
246	0x3ad3384f	0.0016114804
247	0xbd3265de	-0.04355418
248	0xbd33265d	-0.043737758
249	0x3d11f20d	0.03563123
250	0xbd694175	-0.05694719
251	0x3e34c2e9	0.17652477
252	0xbdcb0e9f	-0.09914898
253	0xbc29cb64	-0.0103634335
254	0xbba07389	-0.0048965854
255	0xbd4cd854	-0.050010994

network.2.weight f4 [256, 256]
0	0x3e0a2813	0.1349185
1	0x3d1741fe	0.03692817
2	0xbcc9388c	-0.024563096
3	0xbe2f2752	-0.17104843
4	0x3e80ac4a	0.25131446
5	0x3c51375f	0.012769549
6	0x3dc01481	0.09378911
7	0x3df5b4df	0.11997389
8	0xbe22d2cd	-0.15900727
9	0xbdfbe654	-0.12299791
10	0x3cf1ce5b	0.029517343
11	0x3dcd5bd9	0.10027284
12	0x3d8577dd	0.06517003
13	0xbe238930	-0.15970302
14	0x3cb63a33	0.022244548
15	0xbe916c39	-0.2840288
16	0xbd5353c2	-0.05159355
17	0x3d7bdfa0	0.061492562
18	0xbe4ff737	-0.20309149
19	0xbd9e6897	-0.07734793
20	0xbe4254af	-0.18977617
21	0xbdb9885d	-0.09059212
22	0xbed099ad	-0.40742245
23	0xbda01cba	-0.07817979
24	0xbe1ccfc5	-0.15313633
25	0xbe894a0e	-0.26814312
26	0xbd920d14	-0.07131401
27	0x3d32c48c	0.043644473
28	0x3d1eeb6b	0.03879873
29	0xbeaaa50a	-0.3332904
30	0xbdd99629	-0.10624344
31	0x3da75c3b	0.081718884
32	0x3e08ddda	0.1336588
33	0xbf0b26ec	-0.54356265
34	0xbd839b29	-0.06426079
35	0x3e812d20	0.2522974
36	0x3d917746	0.07102828
37	0x3e2399ad	0.15976591
38	0xbe77965d	-0.24178453
39	0x3c842438	0.016130552
40	0xbe50296a	-0.20328298
41	0x3d61b5bc	0.055104956
42	0xbe5578d9	-0.20846881
43	0xbf426bbe	-0.7594565
44	0xbe0d9b0a	-0.13828674
45	0x3d8e683c	0.06953475
46	0xbea79153	-0.3272806
47	0x3d3eb069	0.046554957
48	0xbdaf656f	-0.08564269
49	0xbe419a48	-0.1890651
50	0x3e1edd8d	0.15514202
51	0xbd911023	-0.07083156
52	0xbd9e5494	-0.07730976
53	0xbf1a90cf	-0.6037721
54	0xbd80566d	-0.062664844
55	0xbe7fc656	-0.24978003
56	0xbc9b64b1	-0.018968912
57	0x3d90dc80	0.07073307
58	0xbe740bc4	-0.23832613
59	0x3e83f4e7	0.25772783
60	0xbe0e03f9	-0.13868703
61	0xbe92f8d1	-0.28705457
62	0x3d73a9d5	0.059488136
63	0x3e950b79	0.29110315
64	0x3e905ab1	0.28194192
65	0xbe596b76	-0.212324
66	0x3e59b1c5	0.2125922
67	0x3ceaef87	0.028678669
68	0x3e024ad6	0.1272386
69	0x3cd45598	0.02591972
70	0xbebb19db	-0.36543164
71	0x3dd476cb	0.103742205
72	0x3dace08f	0.08441269
73	0x3ca8c571	0.02060196
74	0xbe92aed5	-0.2864901
75	0xbd0ef1f7	-0.034898724
76	0xbd543201	-0.0518055
77	0xbe099da8	-0.13439047
78	0xbefa7fb3	-0.48925552
79	0xbe9a3eae	-0.30125946
80	0x3dd4b88f	0.10386764
81	0xbf1d8faf	-0.6154737
82	0x3b373140	0.002795294
83	0xbe9a3ddc	-0.3012532
84	0x3dd5c71d	0.104383685
85	0xbca49644	-0.020091183
86	0xbcbd534f	-0.023111014
87	0xbd7917b6	-0.060813628
88	0x3d5329c8	0.051553518
89	0x3d9022fc	0.07037923
90	0xbe769bd2	-0.24082878
91	0xbe1e00a5	-0.15429933
92	0x3c0dc433	0.008652735
93	0x3d118b5a	0.035533287
94	0x3e102c3c	0.14079374
95	0x3d39ab1f	0.04532921
96	0xbe005152	-0.12531021
97	0xbdc1eb32	-0.09468688
98	0xbe84ca8d	-0.25935784
99	0xbe5ecada	-0.21757069
100	0x3e8183e1	0.25295928
101	0x3caf32b0	0.021386474
102	0x3af0540c	0.0018335595
103	0xbe794d46	-0.24345884
104	0x3d9bbe1f	0.07604622
105	0xbe45084d	-0.19241448
106	0xbe527a7e	-0.2055454
107	0x3e15c6ce	0.14626619
108	0x3d4ca716	0.049964033
109	0xbe9462cd	-0.2898163
110	0xbd08d61e	-0.033407323
111	0xbd9190f0	-0.07107723
112	0x3dc3c3cf	0.09558832
113	0x3e75c9a5	0.24002703
114	0x3e095b6f	0.13413785
115	0x3e05f03b	0.13079922
116	0x3e71bb89	0.23606695
117	0x3d9f46fb	0.0777721
118	0x3dceae43	0.100918315
119	0xbe29c71b	-0.16579859
120	0x3c85d5de	0.016337331
121	0x3e6f6239	0.23377313
122	0x3ddd3f96	0.10803144
123	0xbdfedac6	-0.124440715
124	0xbf3b1c9a	-0.7309052
125	0xbe3f8aea	-0.18705335
126	0x3dae4ff7	0.08511346
127	0x3ddba2de	0.10724424
128	0x3de2c070	0.11071861
129	0xbea4d452	-0.32193238
130	0x3d86f5f2	0.06589879
131	0xbf303940	-0.68837357
132	0xbd73c0f1	-0.059510175
133	0x3c196255	0.009361823
134	0x3cd38f42	0.025825147
135	0x3e674727	0.22585736
136	0x3e293bca	0.16526714
137	0xbea54203	-0.32276925
138	0xbe87e1f9	-0.2653959
139	0x3d7675c8	0.06017092
140	0xbe4c7405	-0.19966133
141	0x3e3bf651	0.18355681
142	0x3c91c954	0.017796196
143	0xbc232d6c	-0.00995956
144	0xbddbaddf	-0.10726523
145	0x3e7dad36	0.24773106
146	0xbc33784f	-0.010953977
147	0xbf0a1440	-0.5393715
148	0x3dd039d9	0.101672836
149	0x3e948c9d	0.2901353
150	0x3e378aa8	0.17923987
151	0xbd825a91	-0.063649304
152	0x3e3585fb	0.1772689
153	0x3e8971e2	0.26844698
154	0x3dbf0858	0.09327763
155	0xbe6cd7eb	-0.23129241
156	0xbecffe8d	-0.40623894
157	0xbe8aeea3	-0.2713519
158	0xbe8953c9	-0.26821736
159	0xbd32a702	-0.043616302
160	0xbf3e6d25	-0.7438529
161	0x3dcda987	0.100421004
162	0x3e688239	0.22705926
163	0xbe612c56	-0.21989569
164	0xbc7107c5	-0.014711325
165	0xbe40dd80	-0.18834496
166	0xbf0d68aa	-0.5523783
167	0xbde94426	-0.113899514
168	0x3db5986f	0.08866965
169	0x3e9735d4	0.29533255
170	0xbd07d90f	-0.033165988
171	0x3d1af26f	0.03782886
172	0xbe9ebf85	-0.31005493
173	0x3e318d83	0.17339139
174	0x3e07a3da	0.13246098
175	0x3b8b0409	0.0042424244
176	0x3e4e7c12	0.20164517
177	0xbe7acc3d	-0.24491973
178	0xbe88aa01	-0.26692203
179	0x3d9f900d	0.077911474
180	0xbf0d2885	-0.5513995
181	0x3a7c942b	0.0009635116
182	0x3e0374f4	0.12837583
183	0x3d3ef7c4	0.046623006
184	0xbd6fda52	-0.058557816
185	0xbda8ed3b	-0.08248373
186	0xbcae01a9	-0.021241026
187	0x3e324895	0.174105
188	0xbd6002cf	-0.05469018
189	0xbdb8e8ba	-0.09028764
190	0x3cef2255	0.029191175
191	0xbddde6e7	-0.10835057
192	0xbe1d728e	-0.1537573
193	0xbf579490	-0.84211063
194	0xbe397920	-0.18112612
195	0x3db7e628	0.08979446
196	0x3db81f8b	0.08990391
197	0x3cc7396d	0.024319375
198	0x3dbd872f	0.092543
199	0x3e332746	0.1749545
200	0xbdafb22d	-0.08578906
201	0x3d3c6e51	0.046003643
202	0xbe24310e	-0.16034338
203	0xbd71e999	-0.059060667
204	0xbd9795ff	-0.07401656
205	0x3e244c09	0.1604463
206	0xbe961194	-0.29310286
207	0xbdc0b75a	-0.094099715
208	0xbe92eecb	-0.2869781
209	0xbd416aef	-0.04722112
210	0xbe9977dd	-0.2997426
211	0x3e04cd05	0.12968834
212	0xbf211dd3	-0.62936133
213	0xbd9bf3f3	-0.07614889
214	0x3c8bff1b	0.017089417
215	0x3daed8fd	0.08537481
216	0x3e3a49cd	0.18192215
217	0x3ddfe6d9	0.109327026
218	0xbd7f0437	-0.06225988
219	0xbd1e18b4	-0.038597777
220	0x3e65f7df	0.22457837
221	0xbd15dc3b	-0.03658698
222	0x3e850431	0.2597976
223	0x3e02d9fb	0.12778465
224	0xbda8d013	-0.08242812
225	0xbe252d6f	-0.16130613
226	0xbee3e1cc	-0.44508207
227	0xbf141380	-0.57842255
228	0x3e793e9c	0.2434029
229	0x3cd25df8	0.025679573
230	0xbd927d0f	-0.07152759
231	0x3d7f491c	0.062325582
232	0x3e5dd08b	0.21661584
233	0xbcab0193	-0.020874774
234	0x3de0e1bf	0.10980558
235	0xbe48eedd	-0.19622369
236	0xbe1ac5ee	-0.15114567
237	0xbc76d4c7	-0.0150653785
238	0x3e8570cc	0.2606262
239	0xbd1e49b6	-0.038644515
240	0x3d253c9e	0.040341012
241	0xbc918bd7	-0.017766876
242	0xbbb9912e	-0.0056630587
243	0x3e832119	0.2561119
244	0x3e63e485	0.22255142
245	0xbc67acbb	-0.014140303
246	0xbd6c0d93	-0.057630133
247	0x3e3c5b02	0.18394092
248	0x3d25e992	0.040505953
249	0xbe5da8bb	-0.21646397
250	0x3d9c12d0	0.07620776
251	0x3d9a957d	0.07548044
252	0x3db97942	0.09056331
253	0x3d5b7963	0.05358256
254	0xbedaf9ca	-0.427687
255	0x3e02f651	0.12789275

network.2.bias f4 [256]
0	0x3dc34dde	0.09536336
1	0x3e7b8e0e	0.24565908
2	0xbd296def	-0.041364606
3	0x3d1c923f	0.03822541
4	0xbd898d12	-0.0671636
5	0x3df37eb8	0.11889404
6	0x3d0900e9	0.033448134
7	0x3dadb940	0.08482599
8	0x3ca03d0f	0.019560365
9	0x3dc49449	0.09598596
10	0xbd8e0c4e	-0.06935941
11	0x3e623d93	0.22093801
12	0x3e143ebd	0.14477058
13	0xbd9c04b4	-0.076180845
14	0xbd8c8684	-0.06861594
15	0xbd9cf664	-0.07664183
16	0xbc236c2a	-0.009974519
17	0x3d938104	0.07202342
18	0xbd11f791	-0.03563649
19	0x3e1639da	0.14670506
20	0x3dd398a7	0.103318505
21	0x3c70e9bd	0.014704165
22	0x3e11fb50	0.14256024
23	0xbd8df093	-0.069306515
24	0xbd8ba6f2	-0.06818952
25	0x3e0f5af2	0.13999537
26	0xbd33972e	-0.043845348
27	0x3ded50e4	0.11587694
28	0xbceb6076	-0.02873252
29	0xbd345e93	-0.044035506
30	0xbd99c7b0	-0.075087905
31	0x3e1fbed6	0.15600142
32	0xbd04ac2e	-0.032390766
33	0x3e5c78b3	0.21530418
34	0xbdad81b7	-0.08472007
35	0x3dfce82c	0.12348971
36	0xbc87a05c	-0.016555957
37	0x3e31aa27	0.17350064
38	0x3d30940b	0.043109935
39	0x3c607fa3	0.013702306
40	0xbda2371a	-0.07920666
41	0xbc16ddcf	-0.009208157
42	0xbd2bb583	-0.04192115
43	0x3c395275	0.011311163
44	0x3e50ecd3	0.20402841
45	0xbcb192c9	-0.021676438
46	0xbba3976f	-0.0049924175
47	0x3cfbbe8c	0.030730508
48	0xbd4d5021	-0.050125245
49	0x3e1b7761	0.15182258
50	0x3da972f2	0.08273877
51	0xbceaaa41	-0.028645637
52	0xbd4efeb9	-0.05053589
53	0x3b060ad7	0.0020453238
54	0xbd72e3ef	-0.059299406
55	0x3d87bf2f	0.06628262
56	0x3e498aaa	0.19681802
57	0x3cbcb9fd	0.023037905
58	0xbdb076a8	-0.08616382
59	0xbd249d4c	-0.040189072
60	0xbd8ef133	-0.06979599
61	0x3d9ee96a	0.07759364
62	0xbc5f4a4f	-0.013628556
63	0x3cc247b2	0.023715828
64	0x3e12eaac	0.14347333
65	0x3d65fa30	0.0561468
66	0x3d53ce71	0.05171055
67	0xbcfa7960	-0.030575454
68	0xbb381afe	-0.002809226
69	0xbceee404	-0.02916146
70	0xbcca1da8	-0.024672344
71	0xbd4f05e5	-0.05054273
72	0x3d3aca15	0.045602877
73	0xbcbb4f67	-0.02286501
74	0x3e06e993	0.13175039
75	0x3d9564cd	0.07294617
76	0x3c25acb4	0.010111976
77	0x3ca1ea70	0.019765109
78	0xbd52f069	-0.051498804
79	0x3d33cce3	0.043896567
80	0x3e2e9507	0.17049037
81	0x3bd2eac2	0.0064366767
82	0x3e4feb12	0.20304516
83	0xbd83f7ec	-0.06443772
84	0x3e2b624d	0.16736718
85	0xbcba3d71	-0.022734376
86	0x3de7feba	0.11327882
87	0x3dca6184	0.09881881
88	0x3dcfe8c6	0.1015182
89	0x3e33ab9a	0.1754593
90	0x3db0691d	0.08613799
91	0x3c63b367	0.013897753
92	0xbc1767c1	-0.009241045
93	0x3dd4c700	0.10389519
94	0x3e19ca01	0.15018465
95	0x3dfa8b03	0.12233546
96	0x3dd04dc9	0.10171086
97	0xbd532a58	-0.051554054
98	0xbd83e619	-0.06440372
99	0x3d22ad4b	0.039716046
100	0xbd4225a0	-0.047399163
101	0x3c79d4b5	0.015248467
102	0xbbe70fbf	-0.0070514376
103	0xbd5a4d8a	-0.053296603
104	0x3e1debd1	0.15421988
105	0x3b37662f	0.002798449
106	0xbd22e37c	-0.039767727
107	0x3d1498ac	0.03627841
108	0xbaee8a80	-0.0018199235
109	0x3b2c35eb	0.0026277255
110	0xbd5e68f1	-0.0542993
111	0x3cc3021f	0.023804722
112	0xbd54d77a	-0.051963307
113	0xbd48130f	-0.0488463
114	0xbd97feb5	-0.074216284
115	0x3dffee36	0.12496607
116	0x3c7209e1	0.014772863
117	0xbd631964	-0.055444136
118	0x3d3bdf6b	0.045867365
119	0xbd8a5ce5	-0.067559995
120	0xbcf1ae3e	-0.02950203
121	0xbce626d4	-0.028094687
122	0x3dedba08	0.11607748
123	0xbc75077e	-0.0149554
124	0x3d3ec712	0.046576567
125	0x3dd6e389	0.10492618
126	0xbd425eca	-0.04745368
127	0xbd7cba22	-0.061700948
128	0x3d29d69c	0.041464433
129	0x3dbe20ae	0.09283577
130	0xbdaf1a9c	-0.08549997
131	0x3e28e5a7	0.16493855
132	0x3e417c0d	0.18894978
133	0xbd56b6ec	-0.05242054
134	0x3e38643e	0.1800699
135	0x3ca94aeb	0.020665606
136	0xbc681272	-0.014164554
137	0x3daffb77	0.08592885
138	0xbd4b8d05	-0.049695034
139	0x3d1e0af7	0.038584676
140	0x3dc02993	0.0938293
141	0xbd033ca7	-0.032040264
142	0x3d88f69b	0.06687661
143	0xbcbded4c	-0.023184441
144	0xbc4effde	-0.012634246
145	0x3d3d8f04	0.04627897
146	0x3da9a4ac	0.08283362
147	0x3c8b02c6	0.016969096
148	0xbc900bed	-0.017583812
149	0xbc02c3b3	-0.007981229
150	0x3cc0bc32	0.023527239
151	0xbd412093	-0.047150206
152	0x3d2b460c	0.04181485
153	0xbccc3d82	-0.024931673
154	0x3d506141	0.050874
155	0x3cd3b8e0	0.025844991
156	0x3c7e8815	0.015535374
157	0x3c2b3d41	0.010451616
158	0x3db82da3	0.089930795
159	0xbd5d42d0	-0.054018795
160	0x3d1f0aae	0.038828544
161	0xbd084e63	-0.03327788
162	0xbd8658c1	-0.06559897
163	0x3e19aa91	0.15006472
164	0x3d1ee531	0.038792793
165	0x3d071125	0.032975335
166	0x3dee24c2	0.11628105
167	0xbd55ac7d	-0.05216645
168	0x3e35f9c0	0.17771053
169	0x3e380710	0.17971444
170	0x3dfae938	0.12251514
171	0xbd970d02	-0.07375528
172	0x3e1b5e2a	0.1517264
173	0x3d6b27c7	0.05741098
174	0xbd9d22bf	-0.07672643
175	0x3c300029	0.010742226
176	0x3d2fb76c	0.042899534
177	0xbd71c6f8	-0.059027642
178	0x3e0953c3	0.13410859
179	0xbb70fe60	-0.0036772713
180	0x3c9549f4	0.01822374
181	0x3e524418	0.20533788
182	0xbdc64568	-0.09681207
183	0x3e56310e	0.2091715
184	0x3e144fb4	0.1448353
185	0x3dcc95d9	0.09989519
186	0xbc3b962a	-0.011449376
187	0x3c86c65d	0.016452009
188	0x3e10d9f0	0.14145637
189	0xbb7030b2	-0.0036650118
190	0x3e0b533a	0.13605967
191	0x3e40512e	0.18780968
192	0xbd04988c	-0.032372043
193	0xbcc8c275	-0.024506787
194	0xbc0616bc	-0.008184131
195	0x3e3fac3d	0.18718047
196	0x3dc28baa	0.09499295
197	0xbd19118f	-0.03737026
198	0x3d811adb	0.063039504
199	0x3cd5dd3f	0.026106475
200	0x3ceee325	0.029161045
201	0x3dec65bb	0.11542841
202	0xbd77f6f8	-0.060538262
203	0xbb2eef80	-0.0026693046
204	0x3d0c04d8	0.034184307
205	0x3dad5ad0	0.08464587
206	0x3bab5aea	0.0052293437
207	0xbd7bf9a8	-0.061517388
208	0xbd6f66d6	-0.05844768
209	0x3dc1c414	0.09461227
210	0x3c5badf0	0.013408169
211	0x3e3e46da	0.18581715
212	0x3e0c4e50	0.13701749
213	0x3dc66fe0	0.09689307
214	0x3dce5bfd	0.10076139
215	0x3dfcba0b	0.123401724
216	0x3e1743fb	0.14772026
217	0x3e34af58	0.17645013
218	0x3e7d92d1	0.24763037
219	0xbca763f9	-0.020433413
220	0xbc89fe1c	-0.016844802
221	0xbd26371e	-0.040579908
222	0x3d9d298f	0.07673942
223	0x3def80d0	0.11694491
224	0x3cfcf001	0.030876162
225	0xbd70670e	-0.05869203
226	0x3e210644	0.15725046
227	0x3dbada0b	0.0912362
228	0x3de81e08	0.11333853
229	0x3d220f88	0.039565593
230	0xbd958da0	-0.073024035
231	0x3cc94be7	0.024572326
232	0x3ce3937d	0.027780289
233	0x3dc2d4d8	0.09513253
234	0xbd730130	-0.059327304
235	0xbd6555c9	-0.055990014
236	0x3db1f886	0.0868998
237	0x3dca23a9	0.09870083
238	0xbd852082	-0.06500341
239	0x3dd1942b	0.10233339
240	0xbd941902	-0.07231332
241	0xbdc77c8c	-0.09740552
242	0xbd8b3bac	-0.06798491
243	0xbd55810f	-0.052125033
244	0x3dd1e7a9	0.10249264
245	0xbd87fb19	-0.0663969
246	0x3c8b4e2e	0.017005052
247	0xbcb5352e	-0.022120085
248	0x3e3e4dc4	0.18584353
249	0x3b65c0df	0.0035057587
250	0x3daa1ff5	0.083068766
251	0xbd741fee	-0.059600763
252	0x3cd88755	0.026431719
253	0x3e29302d	0.16522284
254	0xbc04cf8f	-0.008106126
255	0x3cc2997e	0.023754831

network.4.weight f4 [60, 256]
0	0x3de8b12f	0.1136192
1	0x3dba7469	0.09104235
2	0x3ba086c7	0.004898879
3	0xbcf4bf99	-0.029876517
4	0x3c81feb6	0.015868526
5	0x3ebda16d	0.3703722
6	0xbe01a636	-0.1266106
7	0x3e4dc76e	0.20095608
8	0x3d484aca	0.04889945
9	0x3e8448c6	0.25836772
10	0x3c723db9	0.014785224
11	0x3ead6856	0.33868665
12	0x3eb05dc7	0.34446546
13	0xbd2d5ad9	-0.042322967
14	0x3bff2966	0.0077869175
15	0xbc46037b	-0.012085791
16	0x3c8bdc46	0.017072808
17	0x3e8d0088	0.27539468
18	0xbd36eea3	-0.044661175
19	0x3f1b69b5	0.6070817
20	0x3e57def9	0.21081151
21	0x3cb91a70	0.022595614
22	0x3db02cda	0.08602305
23	0x3d58bb02	0.05291272
24	0xbccd53bf	-0.025064347
25	0x3e5051bb	0.20343678
26	0x3c24c72e	0.010057254
27	0x3eb05243	0.3443776
28	0x3d575edd	0.052580703
29	0xbc04305a	-0.008068169
30	0x3cccf945	0.025021205
31	0x3dca589a	0.09880181
32	0x3d145550	0.036214173
33	0x3e2e60b9	0.17029084
34	0xbd2b7da0	-0.041867852
35	0x3e540547	0.20705138
36	0xbd578f90	-0.052627146
37	0x3e5e27ce	0.21694872
38	0xbc9b29a9	-0.018940764
39	0xbd4760d6	-0.048676334
40	0x3cd3d0da	0.025856424
41	0xbd5f0320	-0.05444634
42	0x3ca8ff3e	0.020629521
43	0xbcf55974	-0.029949881
44	0x3e104044	0.14087015
45	0xbcac513d	-0.021034831
46	0xbaab101c	-0.0013051066
47	0x3c1b753a	0.009488398
48	0x3d831107	0.06399732
49	0x3ea8ae31	0.32945397
50	0x3e6f990e	0.2339823
51	0x3d51b440	0.05119729
52	0xbd3459e3	-0.044031035
53	0xbb252d95	-0.002520417
54	0x3c894e55	0.016760984
55	0x3ea9e5c1	0.331831
56	0x3e7dc8e7	0.2478367
57	0xbd1e745f	-0.0386852
58	0x3d01e621	0.03171361
59	0xbcb59afe	-0.022168633
60	0x3ab5ad53	0.0013860859
61	0x3ec760ea	0.38941127
62	0x3d3fd89b	0.04683743
63	0xbd17f7f5	-0.037101705
64	0x3e551b78	0.2081126
65	0x3e16db01	0.14731981
66	0x3ea0a332	0.31374508
67	0xbcb127c4	-0.021625407
68	0x3d1686d8	0.03674969
69	0xbd8ef5fb	-0.06980511
70	0x3d48e36a	0.049045004
71	0x3c994900	0.018711567
72	0x3e92e742	0.2869206
73	0xbb56e891	-0.003279243
74	0x3e63dc9e	0.22252128
75	0x3e81a623	0.25322065
76	0xbc80f5d5	-0.015742222
77	0xbd10fbbd	-0.035396326
78	0xbbccb84d	-0.0062475563
79	0x3d517ad9	0.051142547
80	0x3e309a59	0.17246379
81	0xbc14f666	-0.009091949
82	0x3e422029	0.1895758
83	0xbd3d31f9	-0.046190236
84	0x3e9900b3	0.29883346
85	0xbbaa0e51	-0.005189695
86	0x3e52c486	0.2058278
87	0x3eeeac7e	0.46615976
88	0x3e4c88c7	0.19974051
89	0x3e86b90f	0.26313064
90	0x3e6d0dd0	0.231498
91	0xbd713eea	-0.05889789
92	0x3d5dea66	0.054178618
93	0x3e50df3e	0.2039766
94	0x3dcf3a45	0.10118536
95	0x3e8f02b1	0.2793174
96	0x3e963041	0.2933369
97	0x3d7511fc	0.059831604
98	0xbbe063fe	-0.0068478575
99	0x3d1f6e0e	0.038923316
100	0xbce6b442	-0.028162125
101	0xbd186395	-0.037204344
102	0x3b91c5c1	0.004448623
103	0x3ca9b282	0.020715002
104	0x3e1dc994	0.15408927
105	0xbd21fc9c	-0.039547548
106	0xbc414576	-0.011796346
107	0xbc9ae65f	-0.018908678
108	0xbcd1a527	-0.025591446
109	0x3c1e77b9	0.009672099
110	0xbc9ed575	-0.019388894
111	0xbaa2ca84	-0.0012419974
112	0xbcb91fcd	-0.022598172
113	0xbd1a242e	-0.03763216
114	0x3d7609f0	0.06006807
115	0x3e8a8fa9	0.2706273
116	0x3e8061df	0.2507467
117	0x3c8a4b78	0.01688169
118	0x3eb9f60b	0.36320528
119	0xbca450d9	-0.020058082
120	0xbc9a42ba	-0.018830646
121	0xbd367d5a	-0.04455314
122	0x3e3f4f9f	0.18682717
123	0xbc083d20	-0.008315355
124	0x3d1840f0	0.037171304
125	0x3eb47a15	0.3524939
126	0x3d41226d	0.04715197
127	0x3d6916c6	0.056906484
128	0x3e9c9139	0.30579546
129	0x3e783fcd	0.24243088
130	0x3cd53def	0.026030509
131	0x3f0310be	0.5119742
132	0x3df87d42	0.12133266
133	0x3c307ba3	0.010771665
134	0x3f225376	0.634086
135	0x3e856499	0.26053312
136	0xbb0b7880	-0.002128154
137	0x3e100b2e	0.14066765
138	0xbd3263f5	-0.043552358
139	0x3e982230	0.29713583
140	0x3f35b605	0.70980865
141	0x3c30da60	0.010794252
142	0x3db5d4b8	0.088784635
143	0x3d2de8f5	0.042458493
144	0xbd267f04	-0.040648475
145	0x3ea7861f	0.32719514
146	0x3e5488b7	0.20755278
147	0x3d81a017	0.06329363
148	0x3b28e735	0.0025772576
149	0xbd23c150	-0.03997928
150	0x3e7bab22	0.24577
151	0x3c12f6ed	0.0089700045
152	0xbc776d94	-0.015101809
153	0xbc107059	-0.008815848
154	0xbc6cf90c	-0.014463674
155	0x3e8f69ae	0.28010315
156	0x3d30e827	0.043190148
157	0x3cb24f9e	0.02176648
158	0x3dbfc206	0.09363179
159	0xbc50628d	-0.012718809
160	0x3d310f1f	0.04322731
161	0x3cdbd5ad	0.026835287
162	0xbbbdeb30	-0.005795859
163	0x3e98b837	0.29828045
164	0x3c1c71a5	0.009548579
165	0x3cf3c76a	0.029758174
166	0x3ee96455	0.4558436
167	0x3ca82eb8	0.02053009
168	0x3f0da522	0.553301
169	0x3e2fe372	0.17176607
170	0x3e71143c	0.23542875
171	0xbc364dc8	-0.011126943
172	0x3e8a6612	0.27030998
173	0x3eb87fe4	0.36035073
174	0x3d3d163c	0.046163782
175	0xbc95f93a	-0.018307317
176	0xbcbf3c86	-0.02334429
177	0xbc8ea1f0	-0.017411202
178	0x3e92fd83	0.2870904
179	0x3b58636d	0.0033018247
180	0x3d5f71c8	0.05455187
181	0x3e4566f1	0.1927755
182	0x3ba79ea5	0.0051153474
183	0x3e3e86c7	0.18606101
184	0x3ecb4b68	0.39705968
185	0x3e4140fe	0.18872449
186	0x3cc021b5	0.023453573
187	0xbc96481c	-0.018344931
188	0x3e49ad8f	0.19695114
189	0x3d0b0f5a	0.033950187
190	0x3ea76254	0.32692206
191	0x3da16d1e	0.078821406
192	0x3d1d685e	0.03842961
193	0xbc4e468b	-0.012590061
194	0xbcd6b331	-0.026208492
195	0x3e6ba060	0.23010397
196	0x3f166c95	0.58759433
197	0xbd16a780	-0.036780834
198	0x3e9a16cc	0.30095518
199	0xbd17c248	-0.037050515
200	0x3bc3c080	0.0059738755
201	0x3ea0593f	0.3131809
202	0xbb5d1163	-0.0033732287
203	0x3eb85021	0.35998634
204	0x3d038016	0.032104574
205	0x3e8a3221	0.2699137
206	0x3cfe8fdf	0.031074462
207	0xbb25c079	-0.0025291725
208	0xbd6aa559	-0.057286594
209	0x3eb96ee3	0.36217412
210	0x3e1d3906	0.15353784
211	0x3e600072	0.2187517
212	0x3e85f8a0	0.26166248
213	0x3e57513b	0.2102708
214	0x3e8a5a61	0.2702208
215	0x3e412c55	0.18864568
216	0x3dfbb5c8	0.122905314
217	0x3d5a2297	0.053255644
218	0x3dd0c6a3	0.10194137
219	0x3c9c745e	0.019098457
220	0xbd005cae	-0.031338386
221	0x3d04449a	0.032291986
222	0x3e73f4bb	0.23823826
223	0x3c832b96	0.016011994
224	0x3d182b80	0.03715086
225	0xbd344a7e	-0.044016354
226	0x3e7030a4	0.23456055
227	0x3ea58301	0.3232651
228	0x3e13f024	0.14447075
229	0x3ea424a3	0.32059202
230	0x3d767b26	0.060176037
231	0xbd191458	-0.037372917
232	0x3d5087a7	0.05091062
233	0x3e16bbf2	0.14720133
234	0xbd5d53dc	-0.054035053
235	0xbc981825	-0.0185662
236	0x3dcb4595	0.09925381
237	0x3e50b783	0.20382504
238	0xbc34ba1d	-0.011030701
239	0x3ea1879e	0.3154878
240	0x3d403f50	0.04693538
241	0x3c00b541	0.007855714
242	0xbc9125af	-0.017718164
243	0xbd847ab2	-0.06468715
244	0x3f0f134a	0.5588881
245	0x3b88f5ec	0.004179707
246	0x3e76f0de	0.24115321
247	0x3cacfb7c	0.02111601
248	0x3e22d557	0.15901695
249	0xbd5ac197	-0.053407278
250	0x3e87fd9c	0.26560676
251	0x3ead3eb2	0.33836895
252	0x3d3ebd1f	0.04656708
253	0x3d90f374	0.07077685
254	0xbb3f1c64	-0.002916121
255	0xbd5aa8db	-0.05338369

network.4.bias f4 [60]
0	0x3e4946cd	0.19655915
1	0x3e890854	0.26764166
2	0x3e9f566b	0.3112062
3	0x3e7a77cb	0.2445976
4	0x3dc46cd2	0.09591068
5	0x3e014974	0.12625676
6	0x3d60bf7b	0.05487011
7	0x3e18e453	0.14930849
8	0x3e8f56ab	0.2799581
9	0x3e9c40eb	0.30518278
10	0x3d8a8c85	0.06765083
11	0x3e23e693	0.16005926
12	0x3e56ac9f	0.20964287
13	0x3e341891	0.17587496
14	0x3eadf1d1	0.33973554
15	0x3e92344a	0.28555518
16	0x3c8d034e	0.01721349
17	0x3e878361	0.26467422
18	0x3e9829b7	0.29719326
19	0x3e896105	0.26831833
20	0x3db31135	0.08743516
21	0x3e579d85	0.21056183
22	0x3ea6704c	0.3250755
23	0x3e9acd16	0.30234593
24	0x3e1cabff	0.15299986
25	0x3e3453be	0.1761007
26	0x3cde0de9	0.027106242
27	0x3e27d145	0.16388424
28	0x3e852aa4	0.26009095
29	0x3ea85849	0.32879856
30	0x3e46d39f	0.19416665
31	0xbdb3a061	-0.08770824
32	0x3e68d57c	0.22737688
33	0x3e995b7b	0.29952607
34	0x3e6c9f94	0.23107749
35	0x3e6504c8	0.22365105
36	0x3e5a4284	0.21314436
37	0x3dbe7324	0.09299305
38	0x3e848aa6	0.2588703
39	0x3e45afd0	0.19305348
40	0xbb8274c2	-0.003981204
41	0x3eb15441	0.34634593
42	0x3e7a9b93	0.2447341
43	0x3e63f24d	0.22260399
44	0x3dd3a3d8	0.10333985
45	0x3e5792c9	0.21052088
46	0x3e801da0	0.25022602
47	0x3d89b645	0.06724218
48	0x3e50c7c3	0.20388703
49	0x3e4ce72c	0.2001006
50	0x3ea0d5f7	0.31413242
51	0x3e81acfd	0.25327292
52	0x3ea58304	0.3232652
53	0xbcb7d8e1	-0.022442283
54	0x3e7847bf	0.24246119
55	0x3d8cb49d	0.06870387
56	0x3e88bc4a	0.26706153
57	0x3e657e11	0.22411372
58	0x3e94cfb0	0.29064703
59	0x3e999183	0.2999383
